model/slim-facedetect.onnx (onnx, 419735 bytes, 86 tensors)

extras.0.0.bias f4 [64]
-0.019554684 0.033132285 -0.0005232977 -0.0054854574 0.0331207 0.0031137937 5.795163e-05 -0.0019109908
0.009025584 0.0028019447 -0.04783722 -0.00159906 -0.0022161214 -0.003206505 -0.00041352346 -0.00062138826
0.0031274825 0.17702156 0.0024783409 -0.0031154624 0.0007748325 -0.19413872 0.001497893 0.0011385067
-0.0027794573 0.0031532391 -0.0035982258 0.005804385 0.00030273877 -0.0022551962 0.002052035 -0.0012074499
-0.0028781604 0.0015638366 0.0005910851 0.105115265 -0.0032659904 -0.000980314 0.006987022 0.009494913
-0.012105081 0.010127734 0.0030152833 0.0042707194 0.0027747364 0.0016936067 -0.00095126365 -0.017298315
-0.0024169108 -0.0018366195 0.4408255 -0.0028610413 -0.0025177205 0.0019350869 -0.0010656539 -0.0022173137
-0.0006997872 0.001604975 1.943784e-05 0.0029729647 0.0023988844 -0.0018107076 0.013141137 0.003513438
00000000: 2531 a0bc b8b5 073d ea2d 09ba 5abf b3bb
00000010: 92a9 073d ca10 4c3b 1711 7338 367a faba
00000020: 0be0 133c d5a0 373b f6f0 43bd 8d97 d1ba
00000030: 593c 11bb 3a24 52bb 2ece d8b9 a9e4 22ba
00000040: 73f6 4c3b 2445 353e a96b 223b c92c 4cbb
00000050: 211e 4b3a 4dcc 46be f354 c43a f239 953a
00000060: 8e27 36bb 93a6 4e3b 36d0 6bbb b632 be3b
00000070: e9b8 9e39 eacb 13bb 6f7b 063b 4c43 9eba
00000080: 859f 3cbb a6f9 cc3a 0df3 1a3a ac46 d73d
00000090: 3a0a 56bb e17d 80ba 63f3 e43b 8d90 1b3c
000000a0: 6454 46bc ccee 253c 0f9c 453b 64f1 8b3b
000000b0: 5ad8 353b 03fc dd3a 395e 79ba 32b5 8dbc
000000c0: 0965 1ebb b9ba f0ba e1b3 e13e 4f80 3bbb
000000d0: 5700 25bb bea2 fd3a 69ad 8bba 5a50 11bb
000000e0: ed71 37ba 065e d23a 720e a337 12d6 423b
000000f0: 9a36 1d3b 4455 edba ec4d 573c b541 663b

extras.0.2.0.bias f4 [64]
-0.06277096 0.094665386 0.034987792 0.086275265 0.12398378 0.013002128 -0.016187446 -0.019642456
0.08743047 -0.0015802571 -0.08846141 -0.009337839 0.027232425 -0.0090293735 -0.018076995 -0.017504055
-0.00889823 0.20489278 0.04448621 -0.0101853125 -0.002260669 -0.24293718 -0.004379151 -0.01217871
-0.014675525 -0.011520171 -0.0165707 0.020423636 -0.017507866 -0.013903913 0.056526005 -0.0027617717
0.031609472 -0.0069377488 0.07404395 0.13387854 0.13864289 0.105773516 0.037371237 -0.08492692
0.12641293 0.1029045 -0.00035889604 0.06295656 -0.018964825 0.0012590316 0.09199853 0.1662766
0.009222255 -0.007951048 0.2530793 -0.016675627 -0.01724147 -0.011860091 -0.0027115294 -0.0048018936
-0.002230628 0.0028228182 0.014434919 -0.019747367 -0.016173549 -0.016905922 -0.023835814 0.013366689
00000000: 108e 80bd eddf c13d 5c4f 0f3d 16b1 b03d
00000010: 35eb fd3d e106 553c 899b 84bc 37e9 a0bc
00000020: bf0e b33d a120 cfba 412b b5bd bcfd 18bc
00000030: 8916 df3c f0ef 13bc 3516 94bc aa64 8fbc
00000040: e2c9 11bc 6acf 513e 2c37 363d 4ce0 26bc
00000050: bb27 14bb 86c4 78be fb7e 8fbb 3689 47bc
00000060: 9d71 70bc 19bf 3cbc 47bf 87bc 784f a73c
00000070: a86c 8fbc 3dcd 63bc d087 673d d7fe 34bb
00000080: ef78 013d 0e56 e3bb 5ba4 973d 7517 093e
00000090: 67f8 0d3e c99f d83d 9512 193d 2aee adbd
000000a0: 6472 013e 98bf d23d 362a bcb9 5eef 803d
000000b0: 1f5c 9bbc 1706 a53a ba69 bc3d 6a44 2a3e
000000c0: f118 173c 1d45 02bc 9c93 813e 539b 88bc
000000d0: fc3d 8dbc d450 42bc eab3 31bb 3459 9dbb
000000e0: ba2f 12bb 08ff 383b 7080 6c3c 3bc5 a1bc
000000f0: 647e 84bc 4a7e 8abc 5343 c3bc f5ff 5a3c

extras.0.2.2.bias f4 [256]
0.032334056 0.03892747 -0.007137671 -0.039278757 0.04498545 0.004964692 -0.00056555826 0.037216846
0.021984238 -0.0032004283 0.025599003 0.0016336933 -0.031633314 -0.005627937 -0.014365822 0.028592281
-0.0022376534 -0.002434687 0.029661922 0.02152619 -0.0029409043 -0.006728854 0.04077249 0.09381305
-0.027139165 0.06038416 0.009202545 -0.0056622284 0.0029976063 -0.025180332 -0.0043098843 -0.031397957
0.031304825 -0.04698953 0.00089876 -0.004954034 -0.0005480819 0.005571339 0.03538007 -0.0075301654
0.010233812 0.008627441 -0.022167224 -0.028117698 0.0018780759 -0.0010116893 -0.0055930177 0.004054506
-0.019786643 -0.009611279 0.11579044 -0.012314821 0.110507876 -0.00027174666 -0.018225797 0.009727089
0.015328267 -0.002365675 0.039119247 -0.032122735 0.014749601 0.028484272 0.065565154 0.004376913
-0.008837424 0.04110778 0.00036562304 -0.012253668 -0.025164258 -0.0413437 0.0055788923 -0.004446694
-0.012120531 -0.003432009 0.039605662 0.019831382 -0.050718796 0.0037300466 0.047660686 -0.022148125
-0.005925122 0.031379484 0.06143698 -0.0007061141 -0.0143635 0.0005944595 0.027771592 0.0030565206
0.09664129 0.020314297 0.0021416154 0.005654056 0.07914379 0.0035059107 -0.06865752 -0.03846495
0.00253476 -0.004650668 0.004785255 -0.022775177 -0.03140557 -0.020364081 -0.0009164124 -0.00067443785
0.04696526 -0.009016255 -0.0036917 -0.0035638479 -0.00023508054 -0.0068382793 -9.624026e-05 0.07457217
0.027332203 -0.0099432375 0.058861714 -0.00013282112 0.105240494 0.026589721 0.043273266 0.061636493
0.04752559 0.05721061 0.046414554 0.163337 0.029516026 -0.0016488206 0.08279878 0.0021566302
-0.053807113 -0.0041950676 -0.01655519 0.052739866 0.022641283 0.010703828 -0.016368037 0.07227704
-0.0030070473 -0.008018844 0.04094225 -0.008566254 -0.0013229164 0.0006962677 0.0003941349 0.040372103
0.030546855 -0.0058067963 0.0054354086 -0.00043137243 0.046489853 0.02978408 0.047164287 0.028423825
-0.023758233 0.014247114 0.013625315 -0.0073746378 0.018031346 -0.014762003 -0.0056769312 0.00019555286
0.064543 -0.0014399173 -0.030445544 0.0049471795 0.07711416 0.00507046 -0.046591014 -0.0009994576
-0.011056384 -0.013753981 0.11553352 -0.0035661114 0.011466131 0.026008926 0.0011040288 0.12543438
-0.007016422 -0.02416413 -0.012398173 -0.0028775646 0.041650135 0.023423517 -0.0139590455 0.0873238
0.009710165 0.0076477365 0.005079967 -0.0067591905 -0.0016824304 -0.003014755 -0.0019441154 -0.010616139
-0.027589098 0.009141106 0.012233424 -0.0026352732 0.024284733 0.07801682 0.043465987 0.0008595491
-0.010141326 0.0014389935 0.0058637373 -0.0024946125 0.04053022 0.082907505 0.0038177473 0.0023810093
0.027412066 0.07129438 -0.0026791 0.15861252 -0.0009665157 0.025685815 0.06993676 -0.0032288858
-0.006145046 0.0025897527 -0.0040000514 0.0023036324 -0.0013051415 -0.0049034404 0.033104327 0.03573092
-0.014724099 -0.016934177 -0.05736679 0.0024242036 0.009962429 -0.0054821707 0.08984425 0.0268231
-0.014869903 -0.009007788 0.0058372063 0.058132995 0.010626416 -0.0011456371 -0.025292117 -0.023151774
-0.0048540533 0.013420253 0.0062232893 0.04802184 0.019408755 0.10374988 0.039764233 0.0008401891
-0.022288091 0.056958243 -0.0061680535 -0.007909236 0.12515159 -0.013781052 -0.002939551 -0.0033221203
00000000: b770 043d 6972 1f3d 20e3 e9bb c3e2 20bd
00000010: aa42 383d dbae a23b f941 14ba b170 183d
00000020: 4a18 b43c 47be 51bb 00b5 d13c a721 d63a
00000030: ef91 01bd 8f6a b8bb a05e 6bbc 5c3a ea3c
00000040: 98a5 12bb 458f 1fbb 8ffd f23c b157 b03c
00000050: 30bc 40bb b87d dcbb 0e01 273d 0e21 c03d
00000060: f452 debc 6255 773d 45c6 163c 378a b9bb
00000070: 7d73 443b fc46 cebc ee39 8dbb 259b 00bd
00000080: 7d39 003d 1878 40bd c39a 6b3a 7355 a2bb
00000090: 27ad 0fba c78f b63b b1ea 103d 9bbf f6bb
000000a0: b8ab 273c 1c5a 0d3c 0a98 b5bc 1657 e6bc
000000b0: c529 f63a a99a 84ba a245 b7bb a9db 843b
000000c0: 9917 a2bc a078 1dbc 8a23 ed3d 1ac4 49bc
000000d0: f451 e23d 3879 8eb9 444e 95bc 5e5e 1f3c
000000e0: 6923 7b3c 7109 1bbb 813b 203d 2193 03bd
000000f0: 4fa8 713c d957 e93c 0647 863d 356c 8f3b
00000100: d8ca 10bc a260 283d 18b1 bf39 9cc3 48bc
00000110: 4625 cebc 0358 29bd 24cf b63b 93b5 91bb
00000120: 3195 46bc 8eeb 60bb 8c39 223d 6c75 a23c
00000130: 83be 4fbd cc73 743b da37 433d fc6f b5bc
00000140: 8727 c2bb c687 003d 58a5 7b3d 841a 39ba
00000150: e354 6bbc 80d5 1b3a 4081 e33c e84f 483b
00000160: deeb c53d 2b6a a63c 585a 0c3b a945 b93b
00000170: 2416 a23d 6cc3 653b 509c 8cbd 6c8d 1dbd
00000180: 371e 263b a164 98bb a1cd 9c3b 0293 babc
00000190: 21a3 00bd 93d2 a6bc 653b 70ba c2cc 30ba
000001a0: a55e 403d eab8 13bc 73f0 71bb 728f 69bb
000001b0: f47f 76b9 a513 e0bb 99d4 c9b8 4bb9 983d
000001c0: c9e7 df3c f6e8 22bc fb18 713d e645 0bb9
000001d0: 5488 d73d b0d2 d93c 4f3f 313d 8c76 7c3d
000001e0: 31aa 423d ac55 6a3d 301d 3e3d d141 273e
000001f0: 98cb f13c 3d1d d8ba 6892 a93d 4056 0d3b
00000200: d964 5cbd c776 89bb c09e 87bc c205 583d
00000210: 367a b93c 1c5f 2f3c 4316 86bc fc05 943d
00000220: e211 45bb 7861 03bc 10b3 273d 7959 0cbc
00000230: b565 adba bc85 363a e4a3 ce39 385d 253d
00000240: 663d fa3c f046 bebb 831b b23b d429 e2b9
00000250: 256c 3e3d befd f33c 572f 413d 15d9 e83c
00000260: a0a0 c2bc ba6c 693c b73c 5f3c f2a6 f1bb
00000270: 79b6 933c 54dc 71bc 8d05 babb 520d 4d39
00000280: 1f2f 843d 9bbb bcba ef68 f9bc f31b a23b
00000290: 07ee 9d3d 1a26 a63b 38d6 3ebd 3b00 83ba
000002a0: d625 35bc 6158 61bc d79c ec3d 6cb5 69bb
000002b0: 70dc 3b3c ac10 d53c 0fb5 903a df71 003e
000002c0: 04ea e5bb dbf3 c5bc b521 4bbc 8695 3cbb
000002d0: 5599 2a3d ade2 bf3c 7bb4 64bc d2d6 b23d
000002e0: 6217 1f3c dd99 fa3b da75 a63b 337c ddbb
000002f0: ff84 dcba 3293 45bb b0d1 feba 50ef 2dbc
00000300: 8802 e2bc 94c4 153c b36e 483c 8cb4 2cbb
00000310: c7f0 c63c 48c7 9f3d 6409 323d 5d53 613a
00000320: ce27 26bc 9c9c bc3a 9824 c03b a77c 23bb
00000330: 0403 263d 69cb a93d 2c33 7a3b b50a 1c3b
00000340: 458f e03c ca02 923d d793 2fbb 526b 223e
00000350: c55d 7dba 0f6b d23c 013b 8f3d b79b 53bb
00000360: 625c c9bb d7b8 293b dd12 83bb 8af8 163b
00000370: 4811 abba 0aad a0bb 6798 073d 965a 123d
00000380: 593d 71bc 8bb9 8abc 70f9 6abd 63df 1e3b
00000390: 7539 233c c8a3 b3bb 4300 b83d 1ebc db3c
000003a0: e5a0 73bc 6795 13bc 0946 bf3b dd1c 6e3d
000003b0: 6b1a 2e3c 3429 96ba 6a31 cfbc caa8 bdbc
000003c0: c00e 9fbb 9fe0 5b3c bcec cb3b 8db2 443d
000003d0: 1cff 9e3c d17a d43d d2df 223d 2340 5c3a
000003e0: 8495 b6bc 0c4d 693d 621d cabb bd95 01bc
000003f0: bd27 003e ecc9 61bc 7ba5 40bb eeb7 59bb

classification_headers.0.0.bias f4 [64]
-0.021689387 -0.08177544 -0.018117914 -0.00028825575 0.24773815 0.11596078 -0.57509416 0.025103793
-0.0043385723 -0.20313086 -0.008728083 -0.05243381 0.030945245 0.14342201 -0.0077565364 0.03687876
0.020613214 -0.0018688514 0.20390674 -0.0135854855 -0.0423689 -0.019642605 -0.009698258 0.060045775
-0.09119075 -0.5771809 -0.004714141 -0.016752895 0.046866722 0.00023248256 -0.005583479 -0.02411367
-0.023680687 -0.08581106 0.08155818 -1.1975356 0.09464588 -0.0010710602 -0.048985485 -0.008063487
0.036251303 -0.01633776 -1.1481652 -1.4811035 0.0106472485 -0.02529985 -0.0038218596 -0.007838779
-0.009530806 -0.0013243059 -0.06735611 -0.017666543 0.008384961 -0.030529626 0.0237951 -0.025581883
0.096050516 -6.833504e-07 -0.3273169 -0.015381371 0.07647413 -0.017415289 -0.030938294 0.12406522
00000000: f1ad b1bc e279 a7bd 056c 94bc 0821 97b9
00000010: 12af 7d3e d87c ed3d 5f39 13bf 78a6 cd3c
00000020: 952a 8ebb 8901 50be 3c00 0fbc d6c4 56bd
00000030: e280 fd3c 38dd 123e 8b2a febb 2f0e 173d
00000040: 0bdd a83c 3ff4 f4ba eecc 503e a895 5ebc
00000050: 038b 2dbd 87e9 a0bc 71e5 1ebc 8ff2 753d
00000060: 37c2 babd 21c2 13bf 1579 9abb 5e3d 89bc
00000070: 52f7 3f3d 90c6 7339 9ef5 b6bb 088a c5bc
00000080: 00fe c1bc b6bd afbd fa07 a73d d948 99bf
00000090: b3d5 c13d d162 8cba 01a5 48bd b71c 04bc
000000a0: 3f7c 143d c4d6 85bc 14f7 92bf cd94 bdbf
000000b0: cc71 2e3c a241 cfbc 2a78 7abb 396e 00bc
000000c0: 1927 1cbc 5594 adba 00f2 89bd 6db9 90bc
000000d0: 1361 093c 4419 fabc f1ed c23c 1991 d1bc
000000e0: 22b6 c43d 7b6f 37b5 1596 a7be 2502 7cbc
000000f0: 789e 9c3d 82aa 8ebc 4e72 fdbc e815 fe3d

classification_headers.0.2.bias f4 [6]
0.98597527 -0.99004453 0.98496133 -0.9922245 0.9833599 -0.98817796
00000000: e068 7c3f 8f73 7dbf 6d26 7c3f 6d02 7ebf
00000010: 79bd 7b3f 3bf9 7cbf

classification_headers.1.0.bias f4 [128]
-0.018803177 -0.0021831791 0.06612712 0.02687365 0.029749047 -0.018338257 0.023967177 0.057911556
-0.014004057 0.0023145108 0.03651998 0.17930791 0.034144863 -0.014140295 0.30615094 -0.02059845
-0.009328444 -0.019317754 0.008106594 -0.0116605675 -0.004647119 -0.018493446 0.09088773 0.0544467
-0.16241549 -0.009785291 0.07581225 -0.021504104 -0.007770023 -0.019037358 0.11622905 0.005019643
0.007333768 -0.18842675 -0.0017460537 0.42719886 0.038743645 -0.0018940222 -0.008765974 -0.01392413
0.04335769 0.21757704 -0.005154044 0.07836864 0.004986803 0.007940083 -0.004861598 -0.30504382
-0.47278705 0.13337262 -0.00077431276 -0.013849039 -0.015066723 -0.01797082 0.2665663 0.099685654
-0.0058558756 0.008953383 0.062069617 -0.014615914 0.018456835 -0.23859598 -0.008759335 -0.009783686
0.0023149976 -0.6978762 -0.43485084 0.018184638 -0.56868786 0.17578569 -0.018215299 0.04849371
0.022514792 -0.0034661477 -0.0060028266 -0.01920435 -0.012865251 0.13139133 -0.29782984 0.17838867
-0.015219034 4.0106068e-05 0.09024574 -0.033754945 -0.008902674 0.074773245 -0.016463311 0.03333356
-0.016404493 -0.0004736089 -0.012300893 0.0404505 -0.00029406356 0.017814163 0.032549817 -0.048772994
-0.017925259 -0.011352533 -0.00035409137 -0.0077194218 0.2274112 -0.024004921 -0.014688351 -0.013077728
-0.0153462 -0.0021614768 -0.0005267088 -0.004938927 -0.00858951 0.020014696 -0.031985883 0.40997443
-0.60968566 -0.0069133947 -0.006142551 0.036745846 -0.0015821506 0.029881917 -0.004621553 -0.013450528
0.017530201 -0.007812872 -0.089805804 0.085214384 -0.0008821802 0.044425566 -0.33098063 0.13993049
00000000: 1f09 9abc ab13 0fbb a86d 873d 2126 dc3c
00000010: 46b4 f33c 1d3a 96bc d056 c43c ab34 6d3d
00000020: 4671 65bc 0caf 173b f995 153d 7e9c 373e
00000030: 7cdb 0b3d b2ac 67bc d1bf 9c3e 15be a8bc
00000040: 54d6 18bc 4440 9ebc 85d1 043c f70b 3fbc
00000050: dc46 98bb 917f 97bc 5923 ba3d 8103 5f3d
00000060: 3f50 26be 7c52 20bc 7443 9b3d 6029 b0bc
00000070: ad9b febb 3cf4 9bbc 7f09 ee3d d17b a43b
00000080: 1b50 f03b f1f2 40be d7db e4ba cfb9 da3e
00000090: a8b1 1e3d d740 f8ba 299f 0fbc 0922 64bc
000000a0: d597 313d 84cc 5e3e 41e3 a8bb bd7f a03d
000000b0: 5668 a33b 1f17 023c 0a4e 9fbb b42e 9cbe
000000c0: 2511 f2be d592 083e 40fb 4aba 14e7 62bc
000000d0: 6bda 76bc 8b37 93bc 617b 883e fe27 cc3d
000000e0: a5e2 bfbb 36b1 123c b63c 7e3d 9677 6fbc
000000f0: ca32 973c 8152 74be 5083 0fbc c14b 20bc
00000100: 37b7 173b 04a8 32bf c5a4 debe f3f7 943c
00000110: 8795 11bf 2a01 343e 4038 95bc 57a1 463d
00000120: f170 b83c 4f28 63bb 5cb3 c4bb 7152 9dbc
00000130: c6c8 52bc 738b 063e 277d 98be 85ab 363e
00000140: 4159 79bc 9037 2838 c2d2 b83d a042 0abd
00000150: 85dc 11bc b722 993d 11de 86bc c588 083d
00000160: b762 86bc b64e f8b9 af89 49bc 6caf 253d
00000170: 8b2c 9ab9 02ef 913c f552 053d 31c6 47bd
00000180: fed7 92bc f9ff 39bc 57a5 b9b9 34f3 fcbb
00000190: 7bde 683e f8a5 c4bc 69a7 70bc f843 56bc
000001a0: a16e 7bbc 90a7 0dbb d412 0aba b9d6 a1bb
000001b0: 04bb 0cbc dcf5 a33c a103 03bd 2be8 d13e
000001c0: 5c14 1cbf c289 e2bb 7447 c9bb d082 163d
000001d0: 2a60 cfba ecca f43c 6570 97bb 9a5f 5cbc
000001e0: 7f9b 8f3c 8f01 00bc 1bec b7bd e184 ae3d
000001f0: 1c42 67ba 95f7 353d 4b76 a9be f049 0f3e

classification_headers.1.2.bias f4 [4]
0.5747546 -0.5663086 0.5579997 -0.5590002
00000000: 1e23 133f 9af9 10bf 11d9 0e3f a31a 0fbf

classification_headers.2.0.bias f4 [256]
0.012609098 0.041130394 -0.000700283 -0.011831699 -0.00094491517 -0.0027276813 0.012649785 -0.0069794958
0.37600186 0.02382098 -0.0014179397 0.05269984 -0.037113734 -0.017445482 -0.01295839 -0.00036164132
0.3909254 -0.08102094 -0.09601113 0.10445249 -0.010027217 0.008711237 -0.012053747 -0.0045613972
0.0607725 -0.013818195 -0.14054923 -0.0059184525 -0.014810571 0.06290759 -0.11885375 0.043267835
0.020104248 0.16318765 -0.017761575 0.022141568 -0.012224333 0.04371918 -0.015467385 -0.01790827
0.087479375 -0.005624028 -0.010380491 0.05472267 -0.012397663 0.005684302 0.071317755 -0.002647163
-0.0068787453 0.06896451 0.04560375 -0.005498609 0.022530807 -0.0029367455 -0.0018929986 -0.002055417
0.0008921892 0.020044923 0.07974681 -0.015817745 0.14098772 0.054390557 -0.0056440295 -0.014958874
-0.013237247 -0.0066983523 -0.00065523246 0.0019321352 0.14243995 -0.016566161 0.043106485 0.07935837
0.012248992 -0.00020844926 -0.0031094914 -0.01159114 0.070811614 -0.015802607 0.14755523 -0.006164688
0.067171745 -0.008061614 0.10664426 0.1342506 -0.013034534 -0.011303633 0.120485954 0.021455664
-0.015791839 0.08999493 0.06316229 -0.0009908922 0.04508906 0.08222021 -0.014285549 -0.00955043
0.06598689 -0.014621877 -0.036962587 0.24048813 -0.01418835 -0.3530617 0.04102461 0.014194559
0.09373433 0.09840854 0.23760283 0.056902226 -0.0044102254 -0.016094903 -0.00943456 -0.0016238984
-0.031541683 0.03681931 0.040444702 -0.002130688 0.12936284 -0.019629164 0.015930241 0.04145867
-0.025244916 0.04337873 0.06531657 0.010870091 0.02400148 0.008177154 -0.012530355 -0.0015980969
-0.091447026 -0.015902448 0.0026669167 -0.01014569 -0.00044561946 0.19844322 0.18738042 -0.006260541
0.008372623 -0.006118292 -0.018538669 0.019411242 0.02294587 -0.0024119886 0.11890551 0.0078090886
-0.0072545456 0.01907863 0.09411603 -0.0044952007 -0.010787543 -0.0026304482 0.017609335 -0.016231712
-0.010471701 0.066753924 -0.019738108 -0.00013069282 -0.007573581 0.018114692 -0.44606146 0.0067202
-0.020215912 -0.002531401 -0.01511305 -0.045660336 -0.009858011 -0.016074108 -0.0060205245 -0.030356843
0.31039768 -0.018535154 0.015308802 -0.003935104 -0.0027571586 -0.0035470866 -0.00073845603 0.049351472
0.043489482 -0.016347397 0.1079289 -0.0065080747 0.122039706 0.049805757 -0.006568091 -0.009661333
0.04155466 0.06353172 -0.04029142 0.048943155 -0.025893731 0.105664805 -0.008291877 -0.010313457
0.071094885 0.040585186 -0.27093664 0.06280636 -0.031887643 0.045769826 0.05543634 0.054191533
0.098785765 -0.045673292 0.0331285 0.01013413 -0.006526954 0.06260588 -0.103085056 0.0018996455
0.047848202 0.015009684 -0.42359373 -0.299797 -0.0035659107 -0.012841926 0.048839875 -0.012303485
0.07926584 -0.010833948 0.051104598 -0.03627544 -0.019469336 0.13402481 0.14350066 -0.0063166087
0.14322363 -0.015638592 0.08421071 -0.061854396 -0.01151155 -0.004658562 -0.018538717 0.026149057
0.0115007255 -0.0048139 0.0029292214 -0.011436761 -0.012004694 -0.006483511 0.07704857 -0.008431504
-0.0152048655 -0.011601362 -0.2634252 -0.01229751 -0.018714998 -0.002979153 -0.0071956227 -0.006892934
0.029060055 -0.0056401296 -0.19948119 0.04389611 -0.009528901 0.06765554 0.014756889 0.007325302
00000000: 6496 4e3c 5878 283d 3293 37ba bed9 41bc
00000010: 2fb4 77ba e6c2 32bb 0b41 4f3c 41b4 e4bb
00000020: 5183 c03e 3724 c33c 29da b9ba cadb 573d
00000030: 9204 18bd d4e9 8ebc 6d4f 54bc ad9a bdb9
00000040: 6027 c83e 4eee a5bd 7ca1 c4bd 30eb d53d
00000050: 3249 24bc 94b9 0e3c 147d 45bc c677 95bb
00000060: 96ec 783d b665 62bc 23ec 0fbe 94ef c1bb
00000070: 0aa8 72bc b2d5 803d 9869 f3bd 9d39 313d
00000080: aab1 a43c aa1a 273e b980 91bc 3c62 b53c
00000090: 9248 48bc e212 333d ea6a 7dbc 5db4 92bc
000000a0: 6328 b33d c449 b8bb ef12 2abc e124 603d
000000b0: 911f 4bbc 6243 ba3b 0b0f 923d 077c 2dbb
000000c0: 1967 e1bb 443d 8d3d ffca 3a3d ad2d b4bb
000000d0: 8792 b83c 6a76 40bb 7e1e f8ba 2db4 06bb
000000e0: cee1 693a 4035 a43c 4c52 a33d 3794 81bc
000000f0: 165f 103e a2c8 5e3d 8df1 b8bb 1116 75bc
00000100: 0ae1 58bc da7d dbbb e8c3 2bba b33f fd3a
00000110: c7db 113e c2b5 87bc 6d90 303d a486 a23d
00000120: ffaf 483c 2c93 5ab9 9cc8 4bbb c4e8 3dbc
00000130: ae05 913d 7874 81bc b818 173e 2701 cabb
00000140: 5791 893d dc14 04bc 4e68 da3d fd78 093e
00000150: cc8e 55bc e032 39bc 57c1 f63d cac3 af3c
00000160: e35d 81bc 434f b83d 3b5b 813d d3e0 81ba
00000170: 4eaf 383d 1263 a83d ef0d 6abc 6879 1cbc
00000180: 2224 873d 9990 6fbc 1566 17bd 8542 763e
00000190: 4176 68bc 81c4 b4be 6c09 283d 4c90 683c
000001a0: c9f7 bf3d 6b8a c93d 284e 733e 4f12 693d
000001b0: a783 90bb 75d9 83bc 6a93 1abc fdd8 d4ba
000001c0: da31 01bd d8cf 163d 58a9 253d 03a3 0bbb
000001d0: b177 043e 57cd a0bc 2380 823c 91d0 293d
000001e0: 6dce cebc e5ad 313d b2c4 853d 7718 323c
000001f0: c09e c43c 78f9 053c 1e4c 4dbc 3c77 d1ba
00000200: 9448 bbbd da45 82bc 70c7 2e3b 1c3a 26bc
00000210: 08a2 e9b9 b334 4b3e a7e0 3f3e 3925 cdbb
00000220: 532d 093c f47b c8bb 68de 97bc 5304 9f3c
00000230: faf8 bb3c 7412 1ebb bb84 f33d 62e3 ff3b
00000240: 8ab7 edbb c94a 9c3c e8bf c03d 7a4c 93bb
00000250: 3cbe 30bc 9963 2cbb 7441 903c 5ef8 84bc
00000260: 7f91 2bbc 48b6 883d d0b1 a1bc 960a 09b9
00000270: cd2b f8bb 4365 943c 2b62 e4be 2035 dc3b
00000280: d79b a5bc dde5 25bb ba9c 77bc 5506 3bbd
00000290: 7f83 21bc d9ad 83bc d247 c5bb eaae f8bc
000002a0: 72ec 9e3e 09d7 97bc c5d1 7a3c 0bf2 80bb
000002b0: 72b1 34bb 3d76 68bb f294 41ba c524 4a3d
000002c0: 0722 323d faea 85bc d409 dd3d b041 d5bb
000002d0: f4ef f93d 1f01 4c3d 2439 d7bb 914a 1ebc
000002e0: 3835 2a3d eb1c 823d 9e08 25bd 9e78 483d
000002f0: 171f d4bc ca66 d83d a7da 07bc c6f9 28bc
00000300: 329a 913d a73c 263d 35b8 8abe 9fa0 803d
00000310: 9e9c 02bd 2479 3b3d 3711 633d f1f7 5d3d
00000320: 3150 ca3d eb13 3bbd c0b1 073d 9f09 263c
00000330: 0fe0 d5bb 8337 803d 421e d3bd 87fd f83a
00000340: 7afc 433d 2deb 753c 47e1 d8be fe7e 99be
00000350: 0eb2 69bb f166 52bc 520c 483d 8e94 49bc
00000360: 2156 a23d df80 31bc 0e53 513d 8e95 14bd
00000370: 287e 9fbc cd3d 093e d6f1 123e 8efb cebb
00000380: 37a9 123e 811c 80bc aa76 ac3d 095b 7dbd
00000390: f19a 3cbc daa6 98bb 82de 97bc 8c36 d63c
000003a0: 8a6d 3c3c ecbd 9dbb 2ef8 3f3b 4161 3bbc
000003b0: 56af 44bc a273 d4bb a4cb 9d3d 4a24 0abc
000003c0: d41d 79bc a413 3ebc abdf 86be 7f7b 49bc
000003d0: 3250 99bc e53d 43bb 42c9 ebbb 1fde e1bb
000003e0: 5a0f ee3c d6d0 b8bb cc44 4cbe 68cc 333d
000003f0: 1c1f 1cbc fd8e 8a3d e1c6 713c 1609 f03b

classification_headers.2.2.bias f4 [4]
0.38748077 -0.3856344 0.3732191 -0.37794143
00000000: e163 c63e df71 c5be 9316 bf3e 8a81 c1be

classification_headers.3.bias f4 [6]
0.20489314 -0.20675978 0.14734535 -0.14677043 0.18445851 -0.18267262
00000000: 82cf 513e d6b8 53be b3e1 163e fd4a 16be
00000010: b1e2 3c3e 880e 3bbe

regression_headers.0.0.bias f4 [64]
0.56968784 -0.15723366 -0.0822304 -0.22603539 -0.008667734 0.10524481 0.031010287 0.006764439
-0.017274939 0.24600735 0.09491775 0.86394745 1.01349515e-05 -0.13662899 -0.011965956 -0.01725426
0.0016669923 -0.007231093 -0.016925404 -0.117851056 0.45412514 -0.023234263 -0.01979222 0.0028526743
-0.00046116253 5.4020304e-05 -0.018951682 -0.13339144 0.0053055384 0.62512714 -0.020206295 -0.011137681
-0.026664771 0.57911193 -0.0077898777 -0.00063297513 0.086272955 -0.07622999 -0.0011640759 -0.009064449
-0.01706835 -0.013647331 0.0077780313 -0.007354882 -0.22416522 -0.00058899785 -0.01587892 -0.10371617
-0.015177823 -0.014307574 0.1096386 1.0543407 0.014517365 -0.013065584 -0.07714544 -0.09762418
-0.011687339 -0.009202987 0.2128906 -0.01655827 -0.012295309 1.4091154 -0.038516767 -0.007995774
00000000: 10d7 113f dc01 21be 6968 a8bd d275 67be
00000010: 1d03 0ebc 978a d73d 4909 fe3c 3aa8 dd3b
00000020: 2c84 8dbc 5ae9 7b3e 3d64 c23d a92b 5d3f
00000030: 4909 2a37 78e8 0bbe db0c 44bc ce58 8dbc
00000040: fb7e da3a cef2 ecbb 25a7 8abc e55b f1bd
00000050: 1783 e83e c855 bebc 4b23 a2bc eff3 3a3b
00000060: 30c8 f1b9 dc93 6238 8f40 9bbc c497 08be
00000070: 15da ad3b 5508 203f ac87 a5bc d27a 36bc
00000080: 1470 dabc ae40 143f 3b42 ffbb 3eee 25ba
00000090: e0af b03d 781e 9cbd e893 98ba 0e83 14bc
000000a0: edd2 8bbc 0e99 5fbc dbde fe3b 3901 f1bb
000000b0: 918b 65be fa66 1aba 8214 82bc 2569 d4bd
000000c0: 67ac 78bc 516a 6abc 348a e03d a3f4 863f
000000d0: 3eda 6d3c 0811 56bc 6efe 9dbd 30ef c7bd
000000e0: 417c 3fbc 20c8 16bc feff 593e 36a5 87bc
000000f0: 4472 49bc e55d b43f c2c3 1dbd b500 03bc

regression_headers.0.2.bias f4 [12]
-0.05679105 0.026394635 -0.6629697 -0.27159607 0.016716748 -0.020871013 -0.26448983 0.18197446
0.06817513 0.07544596 -0.4404319 -0.16219611
00000000: bb9d 68bd 9039 d83c 62b8 29bf a40e 8bbe
00000010: 90f1 883c b0f9 aabc 366b 87be 8357 3a3e
00000020: 679f 8b3d 6983 9a3d 4a80 e1be bd16 26be

regression_headers.1.0.bias f4 [128]
0.0077694054 -0.05320693 -0.0101750055 0.011561694 -0.0071731806 0.1628731 -2.825204e-05 0.02792313
0.021413984 -0.008127826 -0.00831771 0.00765348 0.0075662327 0.005683263 -0.0075142696 0.1780754
-0.02069078 -0.014690431 -0.0014334528 -0.012425716 0.05564047 -0.0037348454 -0.012950387 0.0014075045
-0.0038677072 -0.013407401 -0.009958212 0.059377056 0.0032240541 -0.0104020955 0.007070659 0.017660823
0.008032679 0.026279362 -0.0006489184 0.07347716 0.03988891 -0.008008595 1.622556e-05 -0.016383404
0.00028084742 -0.01648279 -0.00074415456 -0.012063576 0.03327105 -8.421761e-05 0.02949487 -0.01944401
-0.00052707695 -0.0180765 0.0011499958 0.008926892 0.017115474 0.014614593 0.020157356 0.006511783
1.9206205e-05 -0.07797451 -0.014303896 -0.008157863 0.040758617 -0.0075891265 -0.008763877 0.017037129
-0.0055013304 0.0018538993 0.03412519 0.20759374 0.06432453 -0.0059365584 -0.03351247 0.062005743
0.012870596 0.026445795 0.05105676 -0.012049233 0.0070922878 -0.014169515 0.0025286097 -0.004386195
-0.0006972966 0.012124211 -0.018019533 0.073789775 0.08697397 0.017683025 0.006212839 -0.0040305885
-0.0075400425 0.016432745 0.21424834 -0.018938717 0.08054572 -0.004787725 0.038809568 0.20460229
-0.012374313 -0.008014889 -0.01844435 0.0034474498 0.008938863 0.13118896 -0.00059034536 -0.00097009423
0.0063416255 0.19859022 0.008613951 0.0310542 0.10362954 0.008335502 -0.02401649 0.004105197
-0.009043565 0.03324597 0.008979462 -0.0050953184 -0.016951164 0.0030659176 0.023384482 0.08278755
-0.025431128 0.013677816 0.0388007 -0.014875693 0.008958487 0.07860629 0.06704375 -0.010291061
00000000: 7f96 fe3b 83ef 59bd 11b5 26bc 426d 3d3c
00000010: 000d ebbb 35c8 263e cbfe ecb7 0cbf e43c
00000020: 616c af3c 932a 05bc 0147 08bc 0bca fa3b
00000030: 29ee f73b aa3a ba3b 433a f6bb 6659 363e
00000040: b67f a9bc 22b0 70bc b2e2 bbba 3b95 4bbc
00000050: 43e7 633d 4fc4 74bb dc2d 54bc 047c b83a
00000060: 5c79 7dbb b7aa 5bbc c527 23bc 5b35 733d
00000070: a74a 533b 8d6d 2abc fdb0 e73b 6ead 903c
00000080: 7f9b 033c d147 d73c 2d1c 2aba 317b 963d
00000090: 8e62 233d 7b36 03bc 201c 8837 7d36 86bc
000000a0: b43e 9339 ea06 87bc 5e13 43ba 4ea6 45bc
000000b0: 3947 083d fc9d b0b8 3a9f f13c 0b49 9fbc
000000c0: 892b 0aba 2b15 94bc 75bb 963a 1942 123c
000000d0: c035 8c3c 0c72 6f3c 0a21 a53c cc60 d53b
000000e0: 031d a137 1ab1 9fbd e35a 6abc 8fa8 05bc
000000f0: 82f2 263d 35ae f8bb 5d96 0fbc 7391 8b3c
00000100: 8144 b4bb 8afe f23a dbc6 0b3d 7493 543e
00000110: 94bc 833d 7687 c2bb 5f44 09bd bcf9 7d3d
00000120: 31df 523c daa4 d83c e520 513d 256a 45bc
00000130: 6c66 e83b 4127 68bc 08b7 253b 12ba 8fbb
00000140: c8ca 36ba a0a4 463c b39d 93bc 181f 973d
00000150: 691f b23d fedb 903c 1295 cb3b 0713 84bb
00000160: 7612 f7bb f79d 863c eb63 5b3e 5e25 9bbc
00000170: 28f5 a43d 59e2 9cbb c8f6 1e3d 4383 513e
00000180: a1bd 4abc e250 03bc 9b18 97bc 9cee 613b
00000190: 4f74 123c 6656 063e 68c1 1aba ec4d 7eba
000001a0: 69cd cf3b 3c5b 4b3e 8721 0d3c 6165 fe3c
000001b0: b93b d43d a191 083c 3bbe c4bc e384 863b
000001c0: 762b 14bc ed2c 083d 981e 133c a1f6 a6bb
000001d0: 2bdd 8abc 90ed 483b d090 bf3c 858c a93d
000001e0: f154 d0bc eb18 603c 7ced 1e3d 2eb9 73bc
000001f0: 9ec6 123c 56fc a03d 3c4e 893d d79b 28bc

regression_headers.1.2.bias f4 [8]
0.009432454 0.037874572 -0.1550031 -0.016024577 0.037019018 -0.016821694 -0.22911395 -0.0073596206
00000000: 948a 1a3c 5e22 1b3d 22b9 1ebe f945 83bc
00000010: 41a1 173d a6cd 89bc d99c 6abe f928 f1bb

regression_headers.2.0.bias f4 [256]
0.011564139 -0.0015805428 -0.00024945717 -0.012599797 0.0031010222 0.010491717 0.06302581 0.009520491
-0.008420039 0.009725972 0.005821537 -0.017978841 -0.01372949 0.020542858 0.013208082 0.0047975066
-0.013824043 0.009457394 -0.010308798 0.008645398 -0.011762315 -0.014201345 -0.019112263 -0.012877859
-0.0015644699 -0.00029573508 0.035474714 0.0030543462 0.0018380875 0.04748354 -0.0055135526 0.023823306
-0.019614788 0.02692243 -0.0100928005 0.020524517 -0.0006884387 -0.008913224 0.014075514 0.013415866
0.0275054 0.002510417 0.036411524 -0.0033914554 0.023029706 0.038274165 0.0022618007 0.01821994
-0.00020042341 0.027392289 0.013543317 0.068286344 0.04299525 0.05545754 0.15875489 -0.0043022344
0.0010232073 0.0028780787 0.0069789467 0.006413981 -0.00075775833 0.03597878 0.00034164623 -0.0071917623
-0.00088510494 0.05293451 -0.0025846965 0.0017282844 0.0053025377 -0.006428774 0.021444922 0.06580816
-0.00050805544 -0.019532062 0.010830335 0.00036269406 -0.015122098 -0.018045902 0.007858712 0.003520218
-0.01270811 0.009109529 -0.006163457 0.012552096 0.03348354 0.1660712 0.007365181 0.0016010078
-0.019123495 0.0052865753 -0.0073345904 -0.0039901133 0.059513554 0.015437939 0.0058948183 -0.007311436
0.035657402 -0.015131255 0.0052250717 -4.3329717e-05 -0.017535942 0.028406637 0.0026794833 0.0009089112
0.010749226 -0.012324354 -0.01883548 -0.014584335 -0.019698953 0.061254364 0.022611652 -0.008308245
-0.0038337766 0.033233725 0.005022036 0.062178798 -0.013845309 0.0080938535 0.06612511 -0.014311543
-0.00087105914 -3.416003e-05 -0.013602074 0.05988994 0.010997365 0.029257488 0.011172105 0.004517739
0.06322402 -0.015991725 -0.0019845814 -0.012452874 0.024133954 -0.011918048 -0.014886235 0.056691602
-0.0122381365 -0.012285753 0.00048512526 -0.0032240164 0.0152187 -0.0077803554 0.021736326 0.02375522
0.056642093 -0.008125164 -0.012603735 0.007127281 0.0011591782 1.2222956e-05 0.0009643787 0.003921747
-0.014649575 0.0017852387 -0.00020427258 -0.0013430193 0.03634541 0.009771488 -0.002195908 -0.0076678377
0.115556374 -0.010208204 0.015078121 0.014484178 0.0006987449 0.0018952762 0.017192585 -0.0046110475
-0.000621421 -0.015045572 0.019966338 0.013307294 0.014064546 -0.0076636756 -0.01536389 0.01780414
0.018039472 0.023026036 -0.0028163628 0.021646656 0.018755093 -0.004908068 0.01610255 0.015562186
-0.012868061 0.019716807 0.04932888 -0.0054629208 -0.015204962 0.014175043 0.0015556919 0.09643464
0.0132334875 -0.016419206 0.032527246 -0.00022009265 -4.251208e-05 0.0054461826 -0.01673714 0.096135214
-0.009846638 0.0014878056 0.0018540686 0.02324029 0.01970385 0.02540548 0.024807168 0.010844503
0.061759934 -0.018585552 -0.01210726 0.003598528 0.062273532 0.0035004362 0.107244454 0.00043179042
0.059184313 0.015281451 -0.015434535 -0.005045142 -0.009688602 0.003174772 -0.015835082 -0.029689798
0.0013726571 0.0258839 -0.018147688 -0.017733516 -0.029673848 0.004141261 0.022226514 0.018603208
-0.0134625705 0.005969221 0.043403395 0.07418507 0.06532481 0.01288112 -0.0029551634 -0.005513699
0.022987109 -0.0064965584 0.018951869 0.028902793 -0.0013491863 0.020805689 -0.0043218383 0.004456951
-0.003966051 0.004547443 0.00042960516 -0.015760742 -0.012285922 -0.008367822 0.019766962 0.0002925463
00000000: 8477 3d3c 372a cfba 93c9 82b9 616f 4ebc
00000010: 853a 4b3b 73e5 2b3c ad13 813d d5fb 1b3c
00000020: 34f4 09bc af59 1f3c 98c2 be3b 5d48 93bc
00000030: a8f1 60bc 7f49 a83c b666 583c 6734 9d3b
00000040: 3d7e 62bc 2ff3 1a3c 3ce6 28bc 6da5 0d3c
00000050: bab6 40bc c2ac 68bc 5291 9cbc a8fd 52bc
00000060: e60e cdba e40c 9bb9 ef4d 113d 6d2b 483b
00000070: fbeb f03a 1a7e 423d 08ab b4bb 1829 c33c
00000080: 31af a0bc 6e8c dc3c 465c 25bc 0823 a83c
00000090: 5778 34ba c508 12bc fc9c 663c 38ce 5b3c
000000a0: 0153 e13c cf85 243b 4024 153d 2e43 5ebb
000000b0: cba8 bc3c 5fc5 1c3d b83a 143b fc41 953c
000000c0: c028 52b9 cb65 e03c cae4 5d3c b6d9 8b3d
000000d0: ca1b 303d 7227 633d a490 223e c2f9 8cbb
000000e0: 241d 863a 269e 3c3b a6af e43b 5f2c d23b
000000f0: 4da4 46ba 7c5e 133d fb1e b339 e0a8 ebbb
00000100: 6306 68ba dbd1 583d 0364 29bb 9a87 e23a
00000110: e9c0 ad3b 77a8 d2bb 43ad af3c 6ec6 863d
00000120: 062f 05ba b401 a0bc b871 313c f927 be39
00000130: adc2 77bc 00d5 93bc d4c1 003c 75b3 663b
00000140: ad35 50bc 2240 153c d3f6 c9bb 4ea7 4d3c
00000150: 0926 093d 920e 2a3e 9e57 f13b e8d8 d13a
00000160: e0a8 9cbc 023b ad3b 0157 f0bb 7fbf 82bb
00000170: 7cc4 733d 69ef 7c3c 5229 c13b c594 efbb
00000180: 7f0d 123d 15e9 77bc 1437 ab3b eebc 35b8
00000190: 89a7 8fbc 09b5 e83c 459a 2f3b 0044 6e3a
000001a0: 861d 303c 16ec 49bc dd4c 9abc 22f3 6ebc
000001b0: b35f a1bc dbe5 7a3d 123c b93c 4e1f 08bc
000001c0: 1940 7bbb 1620 083d e48f a43b 32af 7e3d
000001d0: 6fd7 62bc 159c 043c 9a6c 873d f67a 6abc
000001e0: ca57 64ba 0e47 0fb8 3cdb 5ebc 274f 753d
000001f0: 4b2e 343c 66ad ef3c 340b 373c 8b09 943b
00000200: 987b 813d 1401 83bc c00f 02bb 2407 4cbc
00000210: 92b4 c53c eb43 43bc 65e5 73bc 7435 683d
00000220: 7782 48bc 2f4a 49bc 6958 fe39 054a 53bb
00000230: db57 793c 5af2 febb 6110 b23c 4f9a c23c
00000240: 8a01 683d 681f 05bc e57f 4ebc f78b e93b
00000250: 91ef 973a 3211 4d37 5cce 7c3a 0082 803b
00000260: c504 70bc acfe e93a 0132 56b9 4008 b0ba
00000270: edde 143d 9718 203c 39e9 0fbb 7c42 fbbb
00000280: d2a8 ec3d 5040 27bc 390a 773c 0c4f 6d3c
00000290: fa2b 373a eb6a f83a 77d7 8c3c 4518 97bb
000002a0: dbe6 22ba b481 76bc 7290 a33c d606 5a3c
000002b0: fb6e 663c 921f fbbb d3b8 7bbc fdd9 913c
000002c0: 84c7 933c 19a1 bc3c ba92 38bb 5454 b13c
000002d0: 48a4 993c dcd3 a0bb 7fe9 833c 8af8 7e3c
000002e0: 8fd4 52bc 2485 a13c 140d 4a3d 4d02 b3bb
000002f0: 3c1e 79bc 713e 683c 5ce8 cb3a 867f c53d
00000300: 45d1 583c 9281 86bc 4a3b 053d acc8 66b9
00000310: 004f 32b8 e475 b23b 541c 89bc 8ae2 c43d
00000320: cb53 21bc 7902 c33a 3804 f33a 6c62 be3c
00000330: f869 a13c 271f d03c 6738 cb3c 24ad 313c
00000340: fcf7 7c3d ba40 98bc 875d 46bc 48d5 6b3b
00000350: 8812 7f3d 9367 653b fba2 db3d ee61 e239
00000360: 406b 723d 0d5f 7a3c 22e1 7cbc b851 a5bb
00000370: f1bc 1ebc d60f 503b 93b8 81bc 0538 f3bc
00000380: bbea b33a 790a d43c 76aa 94bc e145 91bc
00000390: 9216 f3bc 6ab3 873b 6114 b63c c165 983c
000003a0: 1d92 5cbc 7499 c33b c2c7 313d 58ee 973d
000003b0: 04c9 853d 550b 533c 6aab 41bb 42ac b4bb
000003c0: 764f bc3c 15e1 d4bb f340 9b3c 8dc5 ec3c
000003d0: 2ed7 b0ba b170 aa3c 359e 8dbb 9d0b 923b
000003e0: a6f5 81bb b702 953b a13c e139 ac1c 81bc
000003f0: e44a 49bc 3019 09bc 53ee a13c e660 9939

regression_headers.2.2.bias f4 [8]
-0.023966651 0.010222954 -0.10561005 -0.049924415 -0.007916084 0.008977536 -0.12268133 -0.10780393
00000000: b655 c4bc 2d7e 273c 154a d8bd 8b7d 4cbd
00000010: 76b2 01bc 8416 133c 5940 fbbd 4fc8 dcbd

regression_headers.3.bias f4 [12]
-0.011986511 0.024150105 -0.01744028 -0.04879751 -0.014213132 0.009678126 -0.095158234 -0.09519407
-0.0033708692 -0.0014815736 -0.10174627 -0.083964415
00000000: 1263 44bc 71d6 c53c ebde 8ebc e6df 47bd
00000010: 32de 68bc 0191 1e3c 52e2 c2bd 1cf5 c2bd
00000020: cde9 5cbb 5c31 c2ba 5960 d0bd 89f5 abbd

454 f4 [16]
0.38573882 0.36833045 0.31411833 0.32488263 0.008818413 0.50718766 0.012178063 0.5350423
0.5659438 0.11166163 0.20722489 0.38003895 0.009047914 0.45764482 0.2879575 0.25043637
00000000: 8f7f c53e cf95 bc3e 1ed4 a03e 0457 a63e
00000010: 1b7b 103c 0dd7 013f 8086 473c 88f8 083f
00000020: b1e1 103f daae e43d c332 543e 7794 c23e
00000030: b43d 143c 6c50 ea3e 2a6f 933e 3239 803e

457 f4 [16]
0.20187107 0.39334583 -0.1631748 -0.16095108 -0.0037919346 0.26458418 0.3471992 0.56343657
-0.11818089 0.6781242 0.2818492 -0.41442525 -0.014905163 0.60591584 0.59837455 -0.09834408
00000000: 4ab7 4e3e a064 c93e 4b17 27be 5cd0 24be
00000010: 1b82 78bb 9477 873e 18c4 b13e 613d 103f
00000020: d308 f2bd 8c99 2d3f 8a4e 903e 8c2f d4be
00000030: c934 74bc 4d1d 1b3f 132f 193f 9f68 c9bd

460 f4 [32]
0.6812562 -0.017387008 0.15530159 0.33699283 0.12152943 0.38671184 0.6773493 0.27511817
0.42619768 -0.014913732 0.22496435 0.4351576 0.51953363 0.16951624 0.64145327 0.029429272
0.0037804225 -0.06789291 0.1846888 -0.6769524 0.4211198 0.21501687 0.34582818 -0.56427515
-1.0766102 0.33518672 0.59114546 0.32825613 0.43878886 0.27763173 1.1774014 -0.18643872
00000000: ce66 2e3f 336f 8ebc 6107 1f3e 538a ac3e
00000010: 6ce4 f83d 18ff c53e c466 2d3f 4adc 8c3e
00000020: 9536 da3e ba58 74bc 0e5d 663e facc de3e
00000030: 2800 053f aa95 2d3e 4836 243f a815 f13c
00000040: f7c0 773b 700b 8bbd 101f 3d3e c14c 2dbf
00000050: 049d d73e 622d 5c3e 6410 b13e 5674 10bf
00000060: 5dce 89bf 989d ab3e 4f55 173f 3011 a83e
00000070: efa8 e03e bf25 8e3e 17b5 963f cbe9 3ebe

463 f4 [32]
1.1786637 -0.0018930165 -0.35587478 0.4413078 2.0736241 0.04481266 0.08993471 0.7178829
0.020192146 0.05059737 0.98550457 0.050299168 0.042557728 0.15490952 1.1111721 -0.023201998
-0.0008463975 0.7101537 1.3672918 0.045268208 -0.0286302 -0.1014107 0.25244758 0.026176423
1.5912187 0.041035682 1.2573289 0.6551265 0.122956544 0.015126079 0.055226654 0.8545336
00000000: 74de 963f 181f f8ba 3835 b6be 19f3 e13e
00000010: 42b6 0440 7b8d 373d b02f b83d 2cc7 373f
00000020: 006a a53c 303f 4f3d 074a 7c3f 8006 4e3d
00000030: 0351 2e3d 9aa0 1e3e e33a 8e3f 1e12 bebc
00000040: c6e0 5dba a2cc 353f 6b03 af3f 286b 393d
00000050: e289 eabc 6ab0 cfbd cf40 813e f06f d63c
00000060: 0ead cb3f 0815 283d 27f0 a03f 5fb6 273f
00000070: a4d0 fb3d 60d3 773c 5835 623d b7c2 5a3f

466 f4 [32]
0.3454615 0.281178 0.15952563 0.26605654 0.22236711 0.333197 0.0025634803 0.12537575
0.30355704 0.45811248 0.24132848 -0.51285774 0.32022 0.05748415 -0.07793549 0.9115113
0.29913932 0.1196523 0.42716807 0.1256161 0.3647057 0.36207002 0.33417505 0.028281197
0.03558886 0.14084902 0.3393158 0.13983953 0.5174822 -0.44096363 0.49801493 0.35077983
00000000: 54e0 b03e 90f6 8f3e b05a 233e 9038 883e
00000010: 34b4 633e cc98 aa3e 1000 283b 8062 003e
00000020: d46b 9b3e b88d ea3e d01e 773e a54a 03bf
00000030: e0f3 a33e 8074 6b3d a49c 9fbd ce58 693f
00000040: ca28 993e 440c f53d c6b5 da3e 82a1 003e
00000050: b5ba ba3e 3e61 b93e fe18 ab3e f8ad e73c
00000060: a0c5 113d ba3a 103e cdba ad3e 1832 0f3e
00000070: b779 043f fcc5 e1be d0fb fe3e 6a99 b33e

469 f4 [32]
-0.3347977 0.08602926 0.00423757 0.19220585 -0.016324293 -0.13045105 -0.057388112 -0.21011934
0.13596772 -0.21802244 1.2170931 -0.18902305 -0.74472153 -0.6539677 -0.10107213 0.92742944
1.7881874 -0.3433859 -0.0054551363 0.39166537 0.33926696 -0.8462313 -0.071823634 0.32499897
0.94537467 0.41634354 0.20324934 0.025155932 -0.92541736 -0.005329974 -0.48990256 0.32653752
00000000: 9b6a abbe 1c30 b03d 50db 8a3b 9cd1 443e
00000010: 86ba 85bc f694 05be cc0f 6bbd 8629 57be
00000020: 1f3b 0b3e 4641 5fbe b5c9 9b3f 428f 41be
00000030: 12a6 3ebf 6d6a 27bf e8fe cebd 046c 6d3f
00000040: 53e3 e43f 47d0 afbe 00c1 b2bb 5d88 c83e
00000050: 66b4 ad3e 9da2 58bf 4518 93bd 4466 a63e
00000060: 1304 723f fb2a d53e 9820 503e d013 ce3c
00000070: 27e8 6cbf 10a7 aebb 82d4 fabe ed2f a73e

472 f4 [32]
0.2306303 0.1813718 0.29212636 0.22584143 0.21255776 0.23020738 0.19900553 0.31689072
0.42996272 0.847765 0.07007401 0.051477663 0.042523414 -0.58983237 -0.015923848 0.22616497
0.16488186 0.09155819 0.13384251 -0.11552544 0.09166591 0.1803754 0.005647227 0.5121468
-0.0067454204 0.44980216 0.020326167 0.6846536 -0.0022056366 0.044353336 -0.0062356796 -0.18645641
00000000: 592a 6c3e 87b9 393e 9691 953e fa42 673e
00000010: bea8 593e 7cbb 6b3e 1bc8 4b3e 803f a23e
00000020: 1324 dc3e 2107 593f f682 8f3d 3eda 523d
00000030: 082d 2e3d 41ff 16bf bb72 82bc ca97 673e
00000040: cad6 283e dc82 bb3d 030e 093e 9a98 ecbd
00000050: 56bb bb3d 54b4 383e 600c b93b 0d1c 033f
00000060: b008 ddbb 784c e63e 1083 a63c 7545 2f3f
00000070: 718c 10bb d8ab 353d ac54 ccbb 6eee 3ebe

475 f4 [32]
-0.24794364 1.1748445 0.06131743 0.013156354 1.9357224 0.46746475 1.1979979 0.05480802
-0.07077635 0.0056844205 1.2780081 -0.0036206946 1.5052967 0.032528102 0.00021008887 -0.28561056
0.9464805 0.0048264563 -0.43566173 -0.0629555 0.33607963 0.00623852 0.0100388825 -0.01907508
-0.0009557755 0.19894055 -0.08990228 0.056328326 -0.0060447166 0.017910808 -0.00056839146 -0.043308496
00000000: f0e4 7dbe 4e61 963f fc27 7b3d c08d 573c
00000010: c0c5 f73f 8a57 ef3e ff57 993f 607e 603d
00000020: 31f3 90bd 6044 ba3b c595 a33f 2d49 6dbb
00000030: 90ad c03f 303c 053d 4d4b 5c39 8c3b 92be
00000040: 8c4c 723f 4027 9e3b 0e0f dfbe d0ee 80bd
00000050: a112 ac3e 806c cc3b 207a 243c 5843 9cbc
00000060: 028d 7aba 12b7 4b3e b01e b8bd 88b8 663d
00000070: c212 c6bb b0b9 923c 1b00 15ba 4064 31bd

478 f4 [64]
-0.07956579 0.6564892 0.57601774 0.073170066 0.6279113 0.3825929 -0.05752948 0.42494667
0.11522643 0.121180005 0.16999698 0.088564515 0.3479349 0.04370284 0.06916553 0.055444065
-0.006152857 0.35538244 0.2593179 -0.26274532 0.49223173 0.42528754 0.18551853 0.4015694
0.14075458 0.57856137 -0.00094125606 -0.0036396682 -0.22607952 0.10384899 0.3693837 0.35783046
0.18829948 0.2739861 -0.59981227 -0.19985841 -0.62616813 0.080189876 0.30899304 -1.3762901
-0.10482225 0.18676004 0.19306834 -0.08897327 0.12395732 0.7871376 0.32887056 0.15626037
-0.13511471 0.46983066 0.07403487 0.28817424 0.4421124 -0.35678273 -0.01790782 -0.05511811
0.1327404 0.40157992 0.70907944 0.25358346 -0.039317984 0.042120058 1.1517745 0.2939092
00000000: 64f3 a2bd ad0f 283f e675 133f 30da 953d
00000010: ccbe 203f 37e3 c33e 08a4 6bbd 9c92 d93e
00000020: d6fb eb3d 392d f83d b013 2e3e 5061 b53d
00000030: 8624 b23e c001 333d a8a6 8d3d 5119 633d
00000040: e89d c9bb b0f4 b53e 51c5 843e 8e86 86be
00000050: cc05 fc3e 4abf d93e 92f8 3d3e 819a cd3e
00000060: f821 103e 991c 143f a0be 76ba 8087 6ebb
00000070: 6481 67be c7ae d43d dc1f bd3e 8e35 b73e
00000080: 94d1 403e e847 8c3e 4c8d 19bf afa7 4cbe
00000090: 8e4c 20bf 973a a43d 5634 9e3e 462a b0bf
000000a0: 0cad d6bd 063e 3f3e b5b3 453e 9e37 b6bd
000000b0: 56dd fd3d da81 493f b961 a83e b802 203e
000000c0: 835b 0abe a58d f03e 989f 973d 938b 933e
000000d0: 8e5c e23e 3aac b6be 6cb3 92bc 87c3 61bd
000000e0: 19ed 073e e29b cd3e 3b86 353f b1d5 813e
000000f0: e50b 21bd 1586 2c3d 596d 933f 447b 963e

481 f4 [64]
-0.44758946 0.1017751 0.70847154 -0.00072956085 -0.054349884 0.10943529 -0.7264546 0.8162039
0.58427346 -0.08783141 0.24356082 -0.3187785 0.079286374 0.15414943 -0.23975752 0.006035425
-0.00023175696 -0.1299778 0.9409448 0.40918028 0.16799815 1.8383839 -0.32723176 0.06486423
-0.5171597 -0.035651296 0.5237684 0.9760665 -0.14511678 -0.0007855445 0.66960907 2.0396016
0.75849116 -0.0013360679 0.05835989 -0.24323979 0.5844382 0.052971706 1.0353266 -0.026930586
0.5921211 1.2542164 -0.050641775 -0.03616546 -0.36686298 -0.0392946 0.14656986 -0.30915642
0.2038054 0.011258662 1.1616251 0.46156397 -0.4858104 -0.05170683 -0.13763906 -0.16551143
0.5092011 0.03360516 0.24833068 -0.099951446 -0.112322554 0.082432956 -0.06620248 0.013306677
00000000: 722a e5be 776f d03d 645e 353f 0040 3fba
00000010: fc9d 5ebd 9c1f e03d eef8 39bf bdf2 503f
00000020: f292 153f f4e0 b3bd 0268 793e f036 a3be
00000030: e560 a23d 59d9 1d3e ff82 75be d0c4 c53b
00000040: c903 73b9 e718 05be c2e1 703f 1480 d13e
00000050: b507 2c3e 2a50 eb3f ec8a a7be 8ad7 843d
00000060: 9464 04bf 1807 12bd b015 063f 7fdf 793f
00000070: 7e99 14be 00ed 4dba 806b 2b3f d588 0240
00000080: 7a2c 423f 001f afba c80a 6f3d da13 79be
00000090: be9d 153f dcf8 583d 9585 843f 889d dcbc
000000a0: 4095 173f 2a8a a03f c06d 4fbd 3c22 14bd
000000b0: 77d5 bbbe 60f3 20bd 6916 163e c049 9ebe
000000c0: 5db2 503e 4076 383c 22b0 943f 1d52 ec3e
000000d0: 24bc f8be 8aca 53bd 41f1 0cbe d47b 29be
000000e0: 015b 023f 90a5 093d 664a 7e3e 58b3 ccbd
000000f0: 5e09 e6bd 9cd2 a83d 2a95 87bd 4004 5a3c

484 f4 [64]
0.02699399 0.37137547 0.2868653 0.14534852 0.08333174 -0.49799722 -0.15944491 0.20550576
-0.6473883 0.10344896 0.33911657 -0.005832507 0.23822138 0.15885209 -0.17727175 -0.23652096
-0.3183987 -0.1705415 0.26851422 -0.099640355 0.2915785 -0.0041706692 0.23241732 -0.20201705
0.16789278 0.011828817 -0.11147322 0.18643446 -0.04052311 0.3245788 -0.006565391 -0.44143087
-0.11807415 0.008276969 0.005492598 0.21718003 0.05047524 -0.42597705 0.26739067 0.19916286
0.2380661 -0.033569813 -0.2361216 0.25267377 -0.13999361 0.27300388 -0.21816579 0.020744026
-0.029386073 0.27119827 -0.023247227 -0.3461944 0.18381791 -0.56963277 0.5933529 0.050796535
0.3558091 -0.26659888 -0.18466726 -0.23553589 -0.14176273 -0.030154422 -0.22671607 -0.4852535
00000000: 8022 dd3c ed24 be3e 02e0 923e 3ed6 143e
00000010: d5a9 aa3d 7ef9 febe 8745 23be 1a70 523e
00000020: 3dbb 25bf 0cdd d33d b0a0 ad3e 9d1e bfbb
00000030: 4ef0 733e 1faa 223e ba86 35be 8d32 72be
00000040: 2805 a3be 6ea2 2ebe b27a 893e 3e10 ccbd
00000050: c749 953e 1caa 88bb cefe 6d3e 8fdd 4ebe
00000060: 16ec 2b3e a8cd 413c 124c e4bd ade8 3e3e
00000070: 90fb 25bd 312f a63e 7e22 d7bb 3a03 e2be
00000080: dcd0 f1bd 209c 073c 40fb b33b 7164 5e3e
00000090: 20bf 4e3d aa19 dabe 6ee7 883e 59f1 4b3e
000000a0: 9ac7 733e 8080 09bd dcc9 71be 755e 813e
000000b0: 7c5a 0fbe 2ac7 8b3e da66 5fbe 60ef a93c
000000c0: 10bb f0bc 80da 8a3e f870 bebc 6440 b1be
000000d0: c33a 3c3e 74d3 11bf fae5 173f 0710 503d
000000e0: 9c2c b63e a67f 88be 6a19 3dbe 5230 71be
000000f0: 402a 11be 6806 f7bc 4228 68be 2673 f8be

487 f4 [64]
-0.4291952 2.4676454 -0.635076 -0.2758177 0.048773736 -0.23603976 0.25793156 0.80726707
-0.024646878 -0.3077034 0.74530876 -0.00028586082 -1.111886 -0.7290462 0.06499498 -0.090850845
0.27149308 0.12218893 0.6149519 0.5162959 -0.6205581 0.0003846096 0.09422313 -0.02671516
2.853525 -0.48581082 0.37261385 -1.2361574 0.7067202 0.5604328 0.00035456344 -0.010828443
-0.06469163 -0.27118772 -0.573118 -0.47879687 -0.04978384 -0.562599 0.055594474 0.30209103
0.76325214 -0.4573856 0.093606554 0.71996766 0.68951523 0.6461777 -0.578006 -0.17672676
0.01913869 0.6811689 -0.3479908 -0.6141952 -0.049467415 -0.13440128 -0.20385823 0.22962834
-0.78516126 -0.1559328 -0.20171052 0.6440875 -0.39441395 0.6227767 -0.27643836 -0.29033402
00000000: 79bf dbbe e7ed 1d40 5794 22bf fa37 8dbe
00000010: f8c6 473d 68b4 71be 9b0f 843e 0ea9 4e3f
00000020: 40e8 c9bc 4d8b 9dbe 8ecc 3e3f 97df 95b9
00000030: 4852 8ebf c6a2 3abf 171c 853d 0210 babd
00000040: 2401 8b3e 313e fa3d 7d6d 1d3f f82b 043f
00000050: e5dc 1ebf 6da5 c939 0ef8 c03d c0d9 dabc
00000060: 27a0 3640 32bc f8be 3ec7 be3e 683a 9ebf
00000070: 9deb 343f 8678 0f3f b3e4 b939 c869 31bc
00000080: 0c7d 84bd 1ed9 8abe dcb7 12bf dd24 f5be
00000090: 24ea 4bbd 7d06 10bf 08b7 633d adab 9a3e
000000a0: 7e64 433f 722e eabe cbb4 bf3d cd4f 383f
000000b0: 1284 303f e76b 253f 34f8 13bf dcf7 34be
000000c0: bec8 9c3c 1661 2e3f da2b b2be e63b 1dbf
000000d0: 589e 4abd 7da0 09be 36c0 50be b123 6b3e
000000e0: 5400 49bf d9ac 1fbe 348d 4ebe ebe2 243f
000000f0: a0f0 c9be 4b6e 1f3f 5489 8dbe a9a6 94be

490 f4 [64]
-0.011224091 0.30546403 0.2573299 -0.26239434 0.21702069 -0.14164267 0.40190035 0.10189034
-0.16756734 0.093897864 0.02218625 0.05817007 0.22310527 -0.13549757 0.30967173 -0.0033554519
-0.11399558 -0.007099681 0.9219589 0.23399438 0.11836005 0.3335987 -0.27786025 0.26588032
0.23970026 0.2650527 0.40884322 -0.3890208 -0.03908977 -0.29565966 0.43825802 0.28102124
0.18158168 0.13601594 0.19414243 0.39882773 0.3366471 0.012520283 0.24785519 0.11418598
0.18757899 0.20740284 -0.100535974 0.3135538 0.0942988 -0.42494798 0.3185802 0.08845322
0.41989976 0.0706353 0.068162985 0.3298285 -0.077399105 0.1285448 0.12504348 0.008304257
0.11183583 0.39515328 -0.015391469 -0.13814756 -0.15252157 0.29890814 0.56549007 0.30753577
00000000: 40e5 37bc c865 9c3e bfc0 833e 8d58 86be
00000010: ac3a 5e3e c70a 11be e2c5 cd3e e2ab d03d
00000020: c696 2bbe 864d c03d f0bf b53c bd43 6e3d
00000030: b575 643e e0bf 0abe 4b8d 9e3e 24e7 5bbb
00000040: 8476 e9bd 71a4 e8bb 8005 6c3f 399c 6f3e
00000050: c166 f23d 73cd aa3e b343 8ebe 7721 883e
00000060: fc73 753e fdb4 873e e653 d13e bc2d c7be
00000070: 981c 20bd b460 97be 5b63 e03e 04e2 8f3e
00000080: 8cf0 393e c347 0b3e 46cd 463e 2633 cc3e
00000090: 025d ac3e e021 4d3c c0cd 7d3e 57da e93d
000000a0: b514 403e 6961 543e cee5 cdbd 208a a03e
000000b0: bb1f c13d c892 d9be f21c a33e f626 b53d
000000c0: 1afd d63e 3da9 903d 0999 8b3d 48df a83e
000000d0: 6c83 9ebd 40a1 033e 660b 003e 940e 083c
000000e0: 2f0a e53d 8851 ca3e 802c 7cbc 8e76 0dbe
000000f0: 9d2e 1cbe 7d0a 993e f5c3 103f 5475 9d3e

493 f4 [64]
0.9148501 0.7174437 0.37825868 -0.31817648 2.1086588 0.29361552 1.154208 0.6429763
0.010448366 0.4164099 -0.06457028 0.6547731 0.5490784 -0.2246457 -0.2016655 -0.0006251583
0.71215665 -6.841726e-05 0.5961772 -1.4174418 -0.06582512 -0.05604598 0.6068378 -0.85337824
0.8862442 0.8729967 -0.28014 0.36082998 -0.41290382 0.005295843 -0.90308523 -1.9232544
-0.14487907 -0.6249424 -0.6495534 -0.3658898 0.76934487 0.7554376 -0.33259088 0.5242798
-0.90363103 -0.120052814 -0.09810809 -0.24136057 0.9667839 0.5166072 -0.15118137 -0.008661732
-0.33322313 -0.47379452 0.32721016 -0.23464964 -0.27102113 0.4926495 0.17414217 0.3992417
-0.02166313 0.681946 -0.10664117 -0.2103802 0.7789452 -0.19504519 -0.20376493 -0.11642093
00000000: 9e33 6a3f 64aa 373f 1fab c13e 07e8 a2be
00000010: 44f4 0640 c654 963e 16bd 933f 189a 243f
00000020: a02f 2b3c ae33 d53e 6c3d 84bd 369f 273f
00000030: 6790 0c3f 8609 66be 6781 4ebe aae1 23ba
00000040: e64f 363f 3d7b 8fb8 129f 183f bc6e b5bf
00000050: 52cf 86bd 7890 65bd b959 1b3f ff76 5abf
00000060: e6e0 623f b67c 5f3f 836e 8fbe b5be b83e
00000070: 2168 d3be c088 ad3b 9830 67bf 332d f6bf
00000080: 2e5b 14be 3afc 1fbf 2249 26bf e855 bbbe
00000090: c9f3 443f 5c64 413f 5a49 aabe 3337 063f
000000a0: 5d54 67bf 40de f5bd e5ec c8bd 3a27 77be
000000b0: 267f 773f 5f40 043f 4acf 1abe f0e9 0dbc
000000c0: 399c aabe 3295 f2be 1788 a73e ff47 70be
000000d0: 48c3 8abe 8e3c fc3e 5352 323e 6869 cc3e
000000e0: e076 b1bc 0394 2e3f b066 dabd e86d 57be
000000f0: f468 473f edb9 47be c1a7 50be 196e eebd

496 f4 [64]
0.93260574 1.2660258 0.5373157 -0.6422851 -0.004740126 0.62808764 -0.5897695 0.6716351
-0.002211872 1.014459 0.38493392 0.6158935 0.30073553 0.81853294 0.087128036 -0.012235373
0.27206695 0.030293304 -0.004094106 1.9552776 0.13607754 0.010185249 0.20236272 -0.002642847
1.0224172 -0.50650615 0.0024623515 0.88814735 -0.0029529661 0.8927753 0.51247346 1.2584316
1.5342048 0.87678677 0.32909903 0.7830461 1.0298817 1.8845699 0.33571294 0.027864642
1.2493045 -0.17422256 0.22154605 1.472392 1.3062317 1.1121451 1.0499231 1.1080866
-0.009502441 1.2590822 1.8746749 -0.018056788 1.4196358 1.2433628 0.29693925 0.30509192
0.384059 1.3446096 0.822146 0.4656868 -0.0141139105 0.5821965 1.1009989 1.6022613
00000000: 40bf 6e3f 220d a23f 868d 093f cc6c 24bf
00000010: 0f53 9bbb 5aca 203f 22fb 16bf 47f0 2b3f
00000020: 0ef5 10bb cbd9 813f 0f16 c53e 32ab 1d3f
00000030: 02fa 993e 608b 513f 2f70 b23d e076 48bc
00000040: 5c4c 8b3e aa29 f83c da27 86bb 8946 fa3f
00000050: e957 0b3e 08e0 263c 2c38 4f3e 9d33 2dbb
00000060: 91de 823f 63aa 01bf 675f 213b a05d 633f
00000070: 8d86 41bb ec8c 643f 7631 033f 4914 a13f
00000080: d360 c43f 1975 603f ab7f a83e b675 483f
00000090: 2ad3 833f 9639 f13f 91e2 ab3e 6444 e43c
000000a0: 36e9 9f3f 6667 32be f8dc 623e 5777 bc3f
000000b0: 9a32 a73f c55a 8e3f e163 863f c8d5 8d3f
000000c0: 20b0 1bbc 9b29 a13f 59f5 ef3f d4eb 93bc
000000d0: a0b6 b53f 8326 9f3f 6c08 983e 0235 9c3e
000000e0: 62a3 c43e 2b1c ac3f 2978 523f 806e ee3e
000000f0: 083e 67bc d40a 153f 88ed 8c3f e616 cd3f
