model/smoke-detect.onnx (onnx, 164370 bytes, 32 tensors)

dense_1/bias:0 f4 [2]
00000000: 9364 2ebc 6711 5b3c
-0.010644096 0.013370848

scale f4 [64]
00000000: f341 e73e f414 b53e e670 963e 59a3 1841
00000010: 7803 cc3e 20e9 7d40 481e f341 2176 b941
00000020: 181a a43e 138d cb3e f23e 0b41 7dea c73f
00000030: ac32 b93f bf0d 213f 1623 753f 4d8e 9e3f
00000040: a907 c83f 5e95 9c3e 5c9f 393f 1519 cb3f
00000050: 6602 c940 ce37 2f41 6d54 9f3e 8c0c b53e
00000060: 90c3 ad3e 569b b93e 1611 bb3e bd2a 4e3f
00000070: 0ee1 f441 4e98 ee41 fe1f c63e 4406 d43e
00000080: 6139 1b3f f565 9d41 b9bd ad3e 46ed af3e
00000090: addb a63e 494a c93e c581 f341 78f9 0f3f
000000a0: 1c87 c93e 3ffd e63e 98b3 da41 3f21 463f
000000b0: e337 a73e 9278 9341 e326 af40 cb66 c63e
000000c0: 6cb9 b43e 4692 1a41 a9c0 733f 0ac7 8d41
000000d0: b83c a93e f866 e83e e03d f041 d6b2 bc3e
000000e0: 380a 6f41 a6a1 3541 df89 aa3e 3cc2 063f
000000f0: e6ec c73e ea00 4a3f 0ebc 8941 2c48 c23e
0.45167503 0.35367548 0.2938301 9.53988 0.39846396 3.9673538 30.389786 23.18268
0.32051158 0.3975607 8.7028675 1.5618435 1.4468589 0.629116 0.9575666 1.2387177
1.5627338 0.30582708 0.7250879 1.586703 6.281543 10.951124 0.311191 0.35361135
0.33938265 0.36251324 0.36536473 0.80533963 30.60989 29.824368 0.38696283 0.4141103
0.6063443 19.674784 0.3393381 0.34360713 0.32589474 0.39314488 30.438364 0.56240034
0.39360893 0.45115086 27.337692 0.7739448 0.32659826 18.433872 5.473497 0.387503
0.35297716 9.660711 0.9521585 17.722187 0.33054137 0.4539106 30.030212 0.3685519
14.939995 11.351965 0.33308312 0.5264013 0.39047927 0.78907645 17.216824 0.37945688

bias f4 [64]
00000000: 7eab 29bf 0a25 a0bf 5e8b 87bf 241d 9cbd
00000010: 1208 ccbf 81a9 dcbd ace3 c7bb 8a6d eebb
00000020: 2cc1 22bf e907 8cbf c5e0 02bd 7c03 a4be
00000030: 5da8 83be 12bb 3fbf ac52 05bf 0cb9 01bf
00000040: f8dd d8be 8eca 0fbf 2acd 3fbf b69e a8be
00000050: 12db b6bd a44b a1bd b3ee b6bf a71e a4bf
00000060: 8a9b 4abf e94b b6bf 0b05 c7bf 1f39 1dbf
00000070: 9f3c b13b 1464 a9bc 2ea0 5dbf f0f9 60bf
00000080: d8da 15bf acd1 cdbc e1fd e3bf 346b a4bf
00000090: b420 91bf 7a86 53bf 1385 ceba 9e29 30bf
000000a0: ed10 54bf 2dd5 a5bf ba51 abbb 7bb2 38bf
000000b0: 9a27 b5bf b21d 82bd 3dd4 11be 1699 9bbf
000000c0: 5a46 c3bf 4c54 07be d386 0fbf 6117 96bd
000000d0: efb1 4ebf c398 0ebf 221c 0bbc d5af f9bf
000000e0: c453 03bd 9018 a3bd e113 eabf a23e 4dbf
000000f0: 8622 82bf 25bb 2fbf 7c45 6fbd 9d89 bbbf
-0.662773 -1.2511303 -1.0589406 -0.07622746 -1.5939963 -0.10774518 -0.0061001386 -0.0072762417
-0.63576007 -1.0939914 -0.03195264 -0.32033908 -0.25714388 -0.7489482 -0.5207927 -0.50672984
-0.4235685 -0.5616845 -0.7492243 -0.32933587 -0.08928503 -0.078757554 -1.4291595 -1.2821854
-0.79143584 -1.4241916 -1.5548414 -0.61415285 0.005408838 -0.020677604 -0.8657254 -0.87881374
-0.58537054 -0.025124393 -1.7811853 -1.2845216 -1.1338105 -0.8262707 -0.0015756212 -0.688135
-0.82838327 -1.2955681 -0.0052282484 -0.7214734 -1.415271 -0.0635332 -0.14241119 -1.2156093
-1.5255845 -0.1321575 -0.560651 -0.07328678 -0.80740255 -0.55701846 -0.008490594 -1.9506785
-0.032062307 -0.07963669 -1.8287317 -0.80173695 -1.0166786 -0.68644935 -0.058415875 -1.4651371

mean f4 [64]
00000000: 0000 0000 0000 0000 0000 0000 0000 0000
00000010: 0000 0000 0000 0000 0000 0000 0000 0000
00000020: 0000 0000 0000 0000 0000 0000 0000 0000
00000030: 0000 0000 0000 0000 0000 0000 0000 0000
00000040: 0000 0000 0000 0000 0000 0000 0000 0000
00000050: 0000 0000 0000 0000 0000 0000 0000 0000
00000060: 0000 0000 0000 0000 0000 0000 0000 0000
00000070: 0000 0000 0000 0000 0000 0000 0000 0000
00000080: 0000 0000 0000 0000 0000 0000 0000 0000
00000090: 0000 0000 0000 0000 0000 0000 0000 0000
000000a0: 0000 0000 0000 0000 0000 0000 0000 0000
000000b0: 0000 0000 0000 0000 0000 0000 0000 0000
000000c0: 0000 0000 0000 0000 0000 0000 0000 0000
000000d0: 0000 0000 0000 0000 0000 0000 0000 0000
000000e0: 0000 0000 0000 0000 0000 0000 0000 0000
000000f0: 0000 0000 0000 0000 0000 0000 0000 0000
0.0 0.0 0.0 0.0 0.0 0.0 0.0 0.0
0.0 0.0 0.0 0.0 0.0 0.0 0.0 0.0
0.0 0.0 0.0 0.0 0.0 0.0 0.0 0.0
0.0 0.0 0.0 0.0 0.0 0.0 0.0 0.0
0.0 0.0 0.0 0.0 0.0 0.0 0.0 0.0
0.0 0.0 0.0 0.0 0.0 0.0 0.0 0.0
0.0 0.0 0.0 0.0 0.0 0.0 0.0 0.0
0.0 0.0 0.0 0.0 0.0 0.0 0.0 0.0

var f4 [64]
00000000: 0000 803f 0000 803f 0000 803f 0000 803f
00000010: 0000 803f 0000 803f 0000 803f 0000 803f
00000020: 0000 803f 0000 803f 0000 803f 0000 803f
00000030: 0000 803f 0000 803f 0000 803f 0000 803f
00000040: 0000 803f 0000 803f 0000 803f 0000 803f
00000050: 0000 803f 0000 803f 0000 803f 0000 803f
00000060: 0000 803f 0000 803f 0000 803f 0000 803f
00000070: 0000 803f 0000 803f 0000 803f 0000 803f
00000080: 0000 803f 0000 803f 0000 803f 0000 803f
00000090: 0000 803f 0000 803f 0000 803f 0000 803f
000000a0: 0000 803f 0000 803f 0000 803f 0000 803f
000000b0: 0000 803f 0000 803f 0000 803f 0000 803f
000000c0: 0000 803f 0000 803f 0000 803f 0000 803f
000000d0: 0000 803f 0000 803f 0000 803f 0000 803f
000000e0: 0000 803f 0000 803f 0000 803f 0000 803f
000000f0: 0000 803f 0000 803f 0000 803f 0000 803f
1.0 1.0 1.0 1.0 1.0 1.0 1.0 1.0
1.0 1.0 1.0 1.0 1.0 1.0 1.0 1.0
1.0 1.0 1.0 1.0 1.0 1.0 1.0 1.0
1.0 1.0 1.0 1.0 1.0 1.0 1.0 1.0
1.0 1.0 1.0 1.0 1.0 1.0 1.0 1.0
1.0 1.0 1.0 1.0 1.0 1.0 1.0 1.0
1.0 1.0 1.0 1.0 1.0 1.0 1.0 1.0
1.0 1.0 1.0 1.0 1.0 1.0 1.0 1.0

dense/bias:0 f4 [64]
00000000: dc32 f339 f5da f13a ad0f e03b c385 07bc
00000010: 1f37 063c 5c0a 00bc 5056 c4bb 381a e6bb
00000020: c71d 4f3b 7e9d f1ba bb13 52bc 1076 1cb9
00000030: 5c4d 90bb 129a bf3b ed84 e93b 7f6c ab3b
00000040: dc9b 15ba 4366 c4bb 3a5f 823b 62fb fbbb
00000050: 6fea 33bc 2dde 27bc b3eb 163a 384d 383b
00000060: f53d 79bb 5e41 7fbb d265 a63b 041f 703b
00000070: 69ae 30bc f390 e1bb c7e2 87b8 a52d 063c
00000080: 5621 a93a 4a97 3cbc dab4 4d3a 42c3 373b
00000090: 10c6 03bb b0b9 66bb c69e fdbb 97aa 2b3c
000000a0: 1c29 78bb 0fe2 523b ff83 c9bb b212 523b
000000b0: b86b 92bb f137 9cbb e30c f4bb 8a6d ce3a
000000c0: 4d56 013c a0dc 00bc 5c40 283c 0c7e 43bb
000000d0: 5e21 883b 6a83 0c3b 837a 47bb 1be4 8fba
000000e0: df3f d5bb 82eb 44bb 54c4 853b f33b c73b
000000f0: 24ef c1b9 3617 1a3b ab20 abbb c557 143a
0.00046386465 0.0018452095 0.006837806 -0.008271637 0.008191853 -0.00781497 -0.0059917346 -0.0070221685
0.0031603442 -0.0018433777 -0.012822087 -0.00014921301 -0.004403753 0.005847224 0.0071264417 0.0052314396
-0.0005707124 -0.005993636 0.003978637 -0.0076898793 -0.010981186 -0.010245842 0.0005757168 0.0028122198
-0.0038031314 -0.0038948874 0.005078056 0.003663958 -0.01078377 -0.0068837344 -6.479542e-05 0.008189593
0.0012903612 -0.0115106795 0.00078470784 0.0028039967 -0.0020107068 -0.0035205893 -0.0077398745 0.0104776835
-0.00378663 0.0032178198 -0.0061497684 0.00320546 -0.0044684075 -0.004767411 -0.0074478253 0.0015749198
0.007894111 -0.007865101 0.010269251 -0.0029829768 0.0041543683 0.0021440634 -0.0030438013 -0.0010978015
-0.006507858 -0.00300476 0.004082242 0.0060801446 -0.00036990002 0.002351237 -0.0052224 0.00056588306

scale1 f4 [32]
00000000: 6d24 fc3f 16b8 bd3f b066 e33f 7824 d03f
00000010: 7f34 b13f 9c49 0440 8014 b23f 2ba9 aa3f
00000020: 9d5a da3f 664c eb3f 32eb b83f 5b77 b93f
00000030: 68c5 9d3f 8341 db3f 12d4 903f d8d3 da3f
00000040: cd3d 873f 812d f13f f39b ad3f 2c8c e03f
00000050: 5b8d b23f bce9 fe3f 23a8 f43f 4ad9 a33f
00000060: b43c 803f b671 d93f 8d6a d13f 77d0 823f
00000070: b357 ec3f 91ac b73f 4439 0840 de15 aa3f
1.9698616 1.4821804 1.7765713 1.6261129 1.3844146 2.0669928 1.3912506 1.3332876
1.7058903 1.838269 1.4446776 1.4489549 1.2325869 1.7129368 1.1314719 1.70959
1.0565735 1.8842012 1.3563217 1.7542777 1.3949388 1.991508 1.9113811 1.2800686
1.0018525 1.6987827 1.6360642 1.0219868 1.8464264 1.4349538 2.1284952 1.3287923

bias1 f4 [32]
00000000: 7655 19bf ac26 10bf 8a1e 12bf ffef 1bbf
00000010: 0783 ffbe f39e 2cbf abe7 f0be 029d 1dbf
00000020: bff1 21bf 316d 50bf 68bb 06bf f81d 01bf
00000030: bc7a e9be 6708 38bf c405 08bf 4360 39bf
00000040: 8571 f9be 3ce3 2ebf a4cb fdbe fd09 12bf
00000050: be32 20bf da39 57bf df38 3cbf df50 0abf
00000060: 4d77 f2be 5d11 18bf ce8d 0bbf c92b ebbe
00000070: b10a 36bf 7b91 08bf 653b 23bf 1e67 fdbe
-0.5989603 -0.5630901 -0.5707785 -0.6091308 -0.49904653 -0.6743004 -0.4705175 -0.615677
-0.632595 -0.8141661 -0.5262971 -0.50436354 -0.4560145 -0.7188782 -0.531338 -0.7241251
-0.4871942 -0.6831548 -0.49569428 -0.5704649 -0.62577426 -0.8407265 -0.7352428 -0.5402965
-0.47356644 -0.59401494 -0.5451325 -0.45931843 -0.71110064 -0.53346986 -0.63762504 -0.49492735

mean1 f4 [32]
00000000: 0000 0000 0000 0000 0000 0000 0000 0000
00000010: 0000 0000 0000 0000 0000 0000 0000 0000
00000020: 0000 0000 0000 0000 0000 0000 0000 0000
00000030: 0000 0000 0000 0000 0000 0000 0000 0000
00000040: 0000 0000 0000 0000 0000 0000 0000 0000
00000050: 0000 0000 0000 0000 0000 0000 0000 0000
00000060: 0000 0000 0000 0000 0000 0000 0000 0000
00000070: 0000 0000 0000 0000 0000 0000 0000 0000
0.0 0.0 0.0 0.0 0.0 0.0 0.0 0.0
0.0 0.0 0.0 0.0 0.0 0.0 0.0 0.0
0.0 0.0 0.0 0.0 0.0 0.0 0.0 0.0
0.0 0.0 0.0 0.0 0.0 0.0 0.0 0.0

var1 f4 [32]
00000000: 0000 803f 0000 803f 0000 803f 0000 803f
00000010: 0000 803f 0000 803f 0000 803f 0000 803f
00000020: 0000 803f 0000 803f 0000 803f 0000 803f
00000030: 0000 803f 0000 803f 0000 803f 0000 803f
00000040: 0000 803f 0000 803f 0000 803f 0000 803f
00000050: 0000 803f 0000 803f 0000 803f 0000 803f
00000060: 0000 803f 0000 803f 0000 803f 0000 803f
00000070: 0000 803f 0000 803f 0000 803f 0000 803f
1.0 1.0 1.0 1.0 1.0 1.0 1.0 1.0
1.0 1.0 1.0 1.0 1.0 1.0 1.0 1.0
1.0 1.0 1.0 1.0 1.0 1.0 1.0 1.0
1.0 1.0 1.0 1.0 1.0 1.0 1.0 1.0

conv2d_3/bias:0 f4 [32]
00000000: 4854 003b 8fc5 b33b 08d8 e33a d8b2 be3b
00000010: 399e 83bb 4251 c93b 63e7 94bb 7511 bf3b
00000020: 7783 ac3b 57d3 e93a 18e8 0bbb 1d06 863b
00000030: 905f a6ba fb0b 1d3c 0952 99bb 52fd f2b9
00000040: 1978 8dbb 4f8b c73b 72f7 e8ba 7cc0 f03b
00000050: 72ea f2ba 58b4 6b3c a396 933c 0d59 94bb
00000060: 1d85 1cbb 09e5 95bb 0660 623b 8733 97bc
00000070: 0c2a fc3a d5d6 c53b 08c8 ff3a 0607 19bc
0.0019581486 0.0054861973 0.0017383108 0.0058196597 -0.0040166643 0.00614372 -0.004544185 0.0058309385
0.0052646953 0.0017839473 -0.0021348055 0.004090084 -0.0012693275 0.009585376 -0.004678969 -0.00046346575
-0.0043172953 0.006089605 -0.001777394 0.0073471647 -0.0018533005 0.014386259 0.018016165 -0.0045272172
-0.0023883053 -0.0045744223 0.0034542098 -0.018457187 0.0019238605 0.006037573 0.001951457 -0.009340053

scale2 f4 [32]
00000000: 90fd e23f 983b 2340 9dde b53f c4cc c63f
00000010: 7339 cd3f 11a5 8f3f df67 9e3f 3e12 e33f
00000020: 40fd 2b40 a520 983f dad7 bd3f 21fe 1e40
00000030: 1890 ea3f b29a a53f fd44 d73f cdf1 a93f
00000040: 5d97 833f ff33 a93f 2092 b73f ca62 b73f
00000050: 13e7 a03f 8105 663f ca1d 9d3f 6a22 b83f
00000060: e733 6d3f e81f ba3f 4bda 0240 7a94 733f
00000070: 7038 2840 f1c9 ac3f edc9 ab3f 76c4 ce3f
1.7733631 2.5505123 1.4208561 1.553124 1.6033157 1.1222249 1.2375449 1.7739942
2.6873322 1.1884962 1.4831498 2.4842608 1.8325224 1.2937834 1.6817929 1.3276917
1.0280567 1.3218993 1.4341469 1.4327023 1.2570518 0.8985215 1.2274716 1.4385502
0.9265732 1.4540987 2.0445735 0.9514843 2.6284447 1.3499128 1.3420998 1.6153705

bias2 f4 [32]
00000000: 7d5e 01bf 4c22 fcbe 75b4 efbe 1452 18bf
00000010: 1b34 09bf 9fb2 11bf edd6 34bf d5dc 15bf
00000020: 6a94 0abf a41d 11bf f6e4 0bbf f2a6 eebe
00000030: cee9 21bf fc04 13bf 70e0 05bf 9582 0cbf
00000040: f495 24bf bf96 2abf 9cd7 31bf 859b 10bf
00000050: a082 2cbf 0c1d 2abf c2c6 2abf 8dd2 15bf
00000060: 3646 21bf a044 18bf 2bc9 17bf 441f 25bf
00000070: e270 1bbf d88e 25bf 2b09 29bf c3e5 15bf
-0.505348 -0.49244916 -0.46817365 -0.5950024 -0.5359513 -0.5691318 -0.7064045 -0.5854009
-0.5413271 -0.56685853 -0.5464624 -0.46611744 -0.6324738 -0.5742948 -0.5229559 -0.5488675
-0.6429131 -0.6663627 -0.6946962 -0.56487304 -0.6738682 -0.6645057 -0.6670953 -0.585244
-0.6299776 -0.59479713 -0.5929133 -0.6450083 -0.6071912 -0.6467109 -0.66029614 -0.58553714

mean2 f4 [32]
00000000: 0000 0000 0000 0000 0000 0000 0000 0000
00000010: 0000 0000 0000 0000 0000 0000 0000 0000
00000020: 0000 0000 0000 0000 0000 0000 0000 0000
00000030: 0000 0000 0000 0000 0000 0000 0000 0000
00000040: 0000 0000 0000 0000 0000 0000 0000 0000
00000050: 0000 0000 0000 0000 0000 0000 0000 0000
00000060: 0000 0000 0000 0000 0000 0000 0000 0000
00000070: 0000 0000 0000 0000 0000 0000 0000 0000
0.0 0.0 0.0 0.0 0.0 0.0 0.0 0.0
0.0 0.0 0.0 0.0 0.0 0.0 0.0 0.0
0.0 0.0 0.0 0.0 0.0 0.0 0.0 0.0
0.0 0.0 0.0 0.0 0.0 0.0 0.0 0.0

var2 f4 [32]
00000000: 0000 803f 0000 803f 0000 803f 0000 803f
00000010: 0000 803f 0000 803f 0000 803f 0000 803f
00000020: 0000 803f 0000 803f 0000 803f 0000 803f
00000030: 0000 803f 0000 803f 0000 803f 0000 803f
00000040: 0000 803f 0000 803f 0000 803f 0000 803f
00000050: 0000 803f 0000 803f 0000 803f 0000 803f
00000060: 0000 803f 0000 803f 0000 803f 0000 803f
00000070: 0000 803f 0000 803f 0000 803f 0000 803f
1.0 1.0 1.0 1.0 1.0 1.0 1.0 1.0
1.0 1.0 1.0 1.0 1.0 1.0 1.0 1.0
1.0 1.0 1.0 1.0 1.0 1.0 1.0 1.0
1.0 1.0 1.0 1.0 1.0 1.0 1.0 1.0

conv2d_2/bias:0 f4 [32]
00000000: b2f3 42bc 6579 02bc f414 84bb 1c77 9339
00000010: 3627 fa3b c849 f9bb 912b bebb 3107 e3bb
00000020: 3fe1 2e3b 1fd7 bdbb 0aaa a4b9 c85d 81b9
00000030: 3fbb 2b39 32bd bdba 14cd 75bb 3f5b 963b
00000040: 6d4b ea38 0cd1 bfbb 549c 49ba 696d 74bb
00000050: b41d abbc 34c2 28bc 14af 7abb 3447 8a3b
00000060: 21df aabc 7001 983b 9293 9abb 0b39 dbbb
00000070: eda4 1cbb 61a0 dfbb fbf9 68bc e3b6 e7bb
-0.011898922 -0.007963513 -0.004030818 0.00028126768 0.007634069 -0.0076076724 -0.0058035334 -0.0069283475
0.002668455 -0.0057934667 -0.00031407207 -0.0002467467 0.00016377585 -0.001447594 -0.003750627 0.004588514
0.00011172039 -0.0058537778 -0.0007690836 -0.003729666 -0.020888187 -0.010300208 -0.0038251327 0.004219914
-0.02085835 0.0046388432 -0.004717299 -0.0066901497 -0.0023902014 -0.0068245386 -0.014219756 -0.0070713623

scale3 f4 [16]
00000000: 1ced 0240 be0d 8840 eb7b 6840 c198 8140
00000010: bc7b 4c40 49aa ad40 c1b9 2a40 517c 3440
00000020: 1c7e 1840 729c c93f 21ca 6c40 0c76 4140
00000030: 518e f840 64f1 4d40 86bf 2340 864b 1640
2.045722 4.2516775 3.6325634 4.0498967 3.1950521 5.427037 2.6675875 2.8200877
2.382697 1.5750868 3.699837 3.02283 7.7673726 3.2178583 2.5585647 2.3483596

bias3 f4 [16]
00000000: 2315 21bf df8a 0dbf f91a 2abf 8867 f0be
00000010: f1bc 1cbf a9bc 0ebf 14ff 1fbf 73d6 18bf
00000020: df8d 19bf 5432 1ebf f7b6 2abf 12f6 0ebf
00000030: 50d7 0dbf 4af7 0abf e081 2abf de5e f5be
-0.6292288 -0.55290025 -0.66447407 -0.46953988 -0.612258 -0.5575662 -0.62498593 -0.59702224
-0.59982103 -0.61795545 -0.6668543 -0.55844223 -0.55406666 -0.54283583 -0.66604424 -0.4792394

mean3 f4 [16]
00000000: 0000 0000 0000 0000 0000 0000 0000 0000
00000010: 0000 0000 0000 0000 0000 0000 0000 0000
00000020: 0000 0000 0000 0000 0000 0000 0000 0000
00000030: 0000 0000 0000 0000 0000 0000 0000 0000
0.0 0.0 0.0 0.0 0.0 0.0 0.0 0.0
0.0 0.0 0.0 0.0 0.0 0.0 0.0 0.0

var3 f4 [16]
00000000: 0000 803f 0000 803f 0000 803f 0000 803f
00000010: 0000 803f 0000 803f 0000 803f 0000 803f
00000020: 0000 803f 0000 803f 0000 803f 0000 803f
00000030: 0000 803f 0000 803f 0000 803f 0000 803f
1.0 1.0 1.0 1.0 1.0 1.0 1.0 1.0
1.0 1.0 1.0 1.0 1.0 1.0 1.0 1.0

conv2d_1/bias:0 f4 [16]
00000000: 7eda 30bb 9299 c73a 5c76 c4bc 8f2f a7bc
00000010: bfe4 70bc b6cc 69bb 0059 4c3b dea6 9bbb
00000020: 309d 19bb 88e4 14bc 732d 56bb 8a5c d137
00000030: d976 6bbc de49 c93b b7c7 233c 6726 41bc
-0.00269857 0.0015228263 -0.02398222 -0.02040842 -0.014702975 -0.0035674996 0.0031180978 -0.0047501167
-0.0023439638 -0.009087689 -0.0032680898 2.4957833e-05 -0.014371597 0.006142839 0.009996346 -0.011788941

scale4 f4 [16]
00000000: f02a f841 fd09 2b41 3816 fe41 3fbc f741
00000010: a77a f641 ca65 8b41 df6f 0541 cb51 4241
00000020: 051f 8f41 d6f5 fa41 780b b141 8dd7 fc41
00000030: 6a8b f341 b9f3 d141 fdf8 2941 b0a7 4941
31.020966 10.689939 31.760849 30.966917 30.809889 17.424702 8.339812 12.144969
17.890146 31.370037 22.1306 31.60525 30.443073 26.244005 10.623288 12.603439

bias4 f4 [16]
00000000: eb2f abbc 9e12 0bc0 fad9 ef3b 9ed9 e8bb
00000010: 8162 98be 8a06 67bf a08f 0ac0 cbec f7bf
00000020: a321 b5bf 3e42 473c ef72 c2bf 9acf 52bc
00000030: 89b7 87bd f3ab 01bf eca9 f7bf 9602 b2bf
-0.020896873 -2.1730113 0.007319686 -0.00710602 -0.29762653 -0.9024435 -2.1650162 -1.9369138
-1.415089 0.012161789 -1.5191325 -0.012866879 -0.066268034 -0.50653 -1.9348731 -1.3907039

mean4 f4 [16]
00000000: 0000 0000 0000 0000 0000 0000 0000 0000
00000010: 0000 0000 0000 0000 0000 0000 0000 0000
00000020: 0000 0000 0000 0000 0000 0000 0000 0000
00000030: 0000 0000 0000 0000 0000 0000 0000 0000
0.0 0.0 0.0 0.0 0.0 0.0 0.0 0.0
0.0 0.0 0.0 0.0 0.0 0.0 0.0 0.0

var4 f4 [16]
00000000: 0000 803f 0000 803f 0000 803f 0000 803f
00000010: 0000 803f 0000 803f 0000 803f 0000 803f
00000020: 0000 803f 0000 803f 0000 803f 0000 803f
00000030: 0000 803f 0000 803f 0000 803f 0000 803f
1.0 1.0 1.0 1.0 1.0 1.0 1.0 1.0
1.0 1.0 1.0 1.0 1.0 1.0 1.0 1.0

conv2d/bias:0 f4 [16]
00000000: da26 43bb dfb5 cd3b cf37 493b 0618 cebb
00000010: 5ec7 983b 301a 91bb 6f71 4a3b d347 df3b
00000020: a6f3 b63b ec33 96bb cc71 a03c 7f41 ea3b
00000030: e95d 9a3b 4516 ca3b c197 4c39 ff15 883a
-0.0029777796 0.0062777842 0.003070343 -0.006289485 0.0046624383 -0.0044281706 0.0030890366 0.006813982
0.0055832444 -0.0045838263 0.019585513 0.007148921 0.004710902 0.0061672055 0.00019511489 0.0010382532

conv2d/kernel:0_quantized u1 [16, 3, 3, 3]
00000000: 0740 416f 3997 479f b830 cb28 0090 505c
00000010: 297a 58e2 20dd 6ebe f1cc b236 f5a9 e2c3
00000020: f6e0 c1e2 e45b 2124 8a5f 50cd 1c8b c579
00000030: d73d a068 9c12 d342 9e46 2d77 ec47 ab63
00000040: d808 8954 012f 19a2 b81b 5490 c4ba bb62
00000050: 054d e840 4786 30ef dca3 4617 8e75 0941
00000060: 3e3a ed7e 1f0b 68de 37c3 4fa4 77f3 43f4
00000070: 21a8 0ade d717 61b4 a249 0aac 09bd eb76
00000080: 7016 30c4 d6bc 3256 2507 ddb6 dcc9 f48b
00000090: cd75 d214 4f09 e4e8 17b6 4c69 d241 0b81
000000a0: c15c 0b5d f030 c695 a15e bcc4 53ed cdb8
000000b0: 6ff6 29fe b5f0 1cd0 2de8 23e0 6d8f 74a0
000000c0: 722e 6067 eb21 e87a a26d becb a9e3 7953
000000d0: 2a44 434a f9ad dddf edaf 3075 bd30 9d00
000000e0: 2965 4fd2 ef75 93c5 6fa1 80ad b0e6 6f61
000000f0: 450d dbb1 59ee bc44 0b1b 579d 866d c773
7 64 65 111 57 151 71 159
184 48 203 40 0 144 80 92
41 122 88 226 32 221 110 190
241 204 178 54 245 169 226 195
246 224 193 226 228 91 33 36
138 95 80 205 28 139 197 121
215 61 160 104 156 18 211 66
158 70 45 119 236 71 171 99
216 8 137 84 1 47 25 162
184 27 84 144 196 186 187 98
5 77 232 64 71 134 48 239
220 163 70 23 142 117 9 65
62 58 237 126 31 11 104 222
55 195 79 164 119 243 67 244
33 168 10 222 215 23 97 180
162 73 10 172 9 189 235 118
112 22 48 196 214 188 50 86
37 7 221 182 220 201 244 139
205 117 210 20 79 9 228 232
23 182 76 105 210 65 11 129
193 92 11 93 240 48 198 149
161 94 188 196 83 237 205 184
111 246 41 254 181 240 28 208
45 232 35 224 109 143 116 160
114 46 96 103 235 33 232 122
162 109 190 203 169 227 121 83
42 68 67 74 249 173 221 223
237 175 48 117 189 48 157 0
41 101 79 210 239 117 147 197
111 161 128 173 176 230 111 97
69 13 219 177 89 238 188 68
11 27 87 157 134 109 199 115

conv2d_1/kernel:0_quantized u1 [16, 16, 3, 3]
00000000: 89f8 c77e c943 e0c5 7d17 cc18 75db cc47
00000010: 73b3 38da 2520 5fdd 5dd1 16cd 9022 9084
00000020: c18a 91ea 40e9 2a8f 9a5f 8c56 c481 eb9e
00000030: 4435 66db e2a3 609b a765 ed85 9193 4e44
00000040: 4d8e 8cee 9849 66c5 2a21 2386 96e3 8989
00000050: 5076 7c57 7d99 db8a 4725 0dc0 27e1 2bbd
00000060: 691c 1adb 8229 84b2 4d8f bcd0 656c 1ec6
00000070: e745 7a96 92b5 6d38 6292 9f4d 4b4a 2a39
00000080: 8a4b 9049 b222 485b 6543 811e 2e80 9196
00000090: 93c4 d769 e468 6210 1980 7e85 e7ac 813f
000000a0: d498 cd8a db54 3bb8 877f 8dc7 bd12 62e3
000000b0: c8b8 2d32 b974 4065 ae9d a7e3 e5ef 6dee
000000c0: 2557 272a 2b6f 6810 c0e3 7e8e e92f 4765
000000d0: e146 b6bb b49c 17c7 92c6 e164 9962 185d
000000e0: 71c7 2fd4 ceea 2aef 35a7 d274 4888 6ff6
000000f0: 2f5b b746 57d6 2471 1cd2 dcc4 e197 4be7
137 248 199 126 201 67 224 197
125 23 204 24 117 219 204 71
115 179 56 218 37 32 95 221
93 209 22 205 144 34 144 132
193 138 145 234 64 233 42 143
154 95 140 86 196 129 235 158
68 53 102 219 226 163 96 155
167 101 237 133 145 147 78 68
77 142 140 238 152 73 102 197
42 33 35 134 150 227 137 137
80 118 124 87 125 153 219 138
71 37 13 192 39 225 43 189
105 28 26 219 130 41 132 178
77 143 188 208 101 108 30 198
231 69 122 150 146 181 109 56
98 146 159 77 75 74 42 57
138 75 144 73 178 34 72 91
101 67 129 30 46 128 145 150
147 196 215 105 228 104 98 16
25 128 126 133 231 172 129 63
212 152 205 138 219 84 59 184
135 127 141 199 189 18 98 227
200 184 45 50 185 116 64 101
174 157 167 227 229 239 109 238
37 87 39 42 43 111 104 16
192 227 126 142 233 47 71 101
225 70 182 187 180 156 23 199
146 198 225 100 153 98 24 93
113 199 47 212 206 234 42 239
53 167 210 116 72 136 111 246
47 91 183 70 87 214 36 113
28 210 220 196 225 151 75 231

conv2d_2/kernel:0_quantized u1 [32, 16, 3, 3]
00000000: 0f1d ab4e 641c e035 d9c5 a876 b56e 4a6d
00000010: f11f 3663 ca2b 5766 b6d2 8980 4f7e b4e7
00000020: b94d 1832 3a2a 711a a9ce 7f77 b5b1 45d4
00000030: dd58 4d67 e9c8 5389 9e45 dd05 7a6e 5c3b
00000040: 86d9 483d 5d78 edc5 d22c b027 8c1b e0f0
00000050: b0b2 0871 6249 8391 7524 0edd 2144 a013
00000060: e690 7757 38e0 7ce9 a072 e3eb 2aad 75ed
00000070: 0b6a 7329 7bd9 9bc4 0f19 d497 566e db53
00000080: d799 7a35 eaad 611a 1cde d095 4790 7994
00000090: 73ae e133 a793 3d62 35ae dddb ecd9 b7d8
000000a0: ddea 8263 3256 d65c 9b94 adbe 2333 3c6c
000000b0: 69b8 7092 61a8 7042 b246 6922 8b71 be32
000000c0: 2fbd 351f 3384 7d54 2418 0591 2351 594b
000000d0: 26cb d5ea 3609 b059 b4b0 9185 1673 743e
000000e0: 1433 47b8 974d 6c5c 18b1 e36c 6e53 3b46
000000f0: d37c a235 1732 7a2d ad37 ddf0 5a17 89c5
15 29 171 78 100 28 224 53
217 197 168 118 181 110 74 109
241 31 54 99 202 43 87 102
182 210 137 128 79 126 180 231
185 77 24 50 58 42 113 26
169 206 127 119 181 177 69 212
221 88 77 103 233 200 83 137
158 69 221 5 122 110 92 59
134 217 72 61 93 120 237 197
210 44 176 39 140 27 224 240
176 178 8 113 98 73 131 145
117 36 14 221 33 68 160 19
230 144 119 87 56 224 124 233
160 114 227 235 42 173 117 237
11 106 115 41 123 217 155 196
15 25 212 151 86 110 219 83
215 153 122 53 234 173 97 26
28 222 208 149 71 144 121 148
115 174 225 51 167 147 61 98
53 174 221 219 236 217 183 216
221 234 130 99 50 86 214 92
155 148 173 190 35 51 60 108
105 184 112 146 97 168 112 66
178 70 105 34 139 113 190 50
47 189 53 31 51 132 125 84
36 24 5 145 35 81 89 75
38 203 213 234 54 9 176 89
180 176 145 133 22 115 116 62
20 51 71 184 151 77 108 92
24 177 227 108 110 83 59 70
211 124 162 53 23 50 122 45
173 55 221 240 90 23 137 197

conv2d_3/kernel:0_quantized u1 [32, 32, 3, 3]
00000000: a0a2 38ae 0f88 d66b 2ba8 887e ebfa 237a
00000010: d51f a872 b70f d492 0026 9b0d 7695 8d6e
00000020: cfde 602c 8634 263a 1ac3 55bc ab8e 1e2f
00000030: 3c81 5754 d8e6 cd1b 3d90 a2ab c982 c089
00000040: 7141 d223 cd94 36be 5e29 04bf bc6c b827
00000050: ce2d 3ecc 8dbf c15d 2b42 8422 69c4 d7ca
00000060: 3763 5361 6ca5 e1d3 b1c4 4553 6ab4 296d
00000070: 9320 682b 3221 a30c 1ccb 1a99 394a c48d
00000080: dd76 8326 11c6 ac59 522c 1f30 4aa3 a6b6
00000090: 16a9 4699 2d99 7dd8 5589 a8dd 4dc5 5856
000000a0: c877 1e20 5855 7b99 8f4e bfba 59d6 46b8
000000b0: b096 1a29 c223 157c cb25 6293 dd45 655a
000000c0: 5639 62b5 7748 e270 cad1 c323 5194 ca74
000000d0: 4983 839f b372 7fea deca 2765 1fc3 b9a5
000000e0: 5614 ba3b b4aa 5a82 6613 1115 94c7 c0bb
000000f0: c3db 248a a7c0 c550 7e6b c734 aa28 d584
160 162 56 174 15 136 214 107
43 168 136 126 235 250 35 122
213 31 168 114 183 15 212 146
0 38 155 13 118 149 141 110
207 222 96 44 134 52 38 58
26 195 85 188 171 142 30 47
60 129 87 84 216 230 205 27
61 144 162 171 201 130 192 137
113 65 210 35 205 148 54 190
94 41 4 191 188 108 184 39
206 45 62 204 141 191 193 93
43 66 132 34 105 196 215 202
55 99 83 97 108 165 225 211
177 196 69 83 106 180 41 109
147 32 104 43 50 33 163 12
28 203 26 153 57 74 196 141
221 118 131 38 17 198 172 89
82 44 31 48 74 163 166 182
22 169 70 153 45 153 125 216
85 137 168 221 77 197 88 86
200 119 30 32 88 85 123 153
143 78 191 186 89 214 70 184
176 150 26 41 194 35 21 124
203 37 98 147 221 69 101 90
86 57 98 181 119 72 226 112
202 209 195 35 81 148 202 116
73 131 131 159 179 114 127 234
222 202 39 101 31 195 185 165
86 20 186 59 180 170 90 130
102 19 17 21 148 199 192 187
195 219 36 138 167 192 197 80
126 107 199 52 170 40 213 132

dense/kernel:0_quantized u1 [2048, 64]
00000000: 3e8f d797 36c6 3f98 513a 3da0 2b36 4431
00000010: c062 2e1b 665c 8e3f 4dc7 e02e b63e cfa5
00000020: 3771 9a31 7959 6781 3c33 8843 cb73 594c
00000030: 7686 c5d0 739e 293b 6a75 2e5d 603c 47b3
00000040: 8331 cc85 1d37 bf9e 78a6 6770 ae64 4b41
00000050: 2b70 55aa 3b91 47d3 3128 4a98 90ca b660
00000060: 6ec3 31cf c77c 7329 4896 91b2 4ac4 d14c
00000070: af93 818a a940 3b66 6c82 3f65 be39 3b39
00000080: c04a ae85 4638 4687 3447 9ba3 ce90 aaa3
00000090: c81a 6276 8e8c 3f87 a531 5849 9a4e 9e2f
000000a0: 7386 5ca2 b9b9 47ac b486 a64c 47a3 88ac
000000b0: b274 3855 b989 5cb6 1c3f 5cb8 6f2d aa9c
000000c0: b22b 7793 694d 90d6 826d 8d7a 49cf 2e1f
000000d0: 566a 6085 c447 3f8e 6061 6088 a797 328d
000000e0: a639 4b64 4985 74d5 3c31 8cc0 668a 4f75
000000f0: b9c7 6d66 c78c 4e43 67af d5b9 9ab2 6fdc
62 143 215 151 54 198 63 152
81 58 61 160 43 54 68 49
192 98 46 27 102 92 142 63
77 199 224 46 182 62 207 165
55 113 154 49 121 89 103 129
60 51 136 67 203 115 89 76
118 134 197 208 115 158 41 59
106 117 46 93 96 60 71 179
131 49 204 133 29 55 191 158
120 166 103 112 174 100 75 65
43 112 85 170 59 145 71 211
49 40 74 152 144 202 182 96
110 195 49 207 199 124 115 41
72 150 145 178 74 196 209 76
175 147 129 138 169 64 59 102
108 130 63 101 190 57 59 57
192 74 174 133 70 56 70 135
52 71 155 163 206 144 170 163
200 26 98 118 142 140 63 135
165 49 88 73 154 78 158 47
115 134 92 162 185 185 71 172
180 134 166 76 71 163 136 172
178 116 56 85 185 137 92 182
28 63 92 184 111 45 170 156
178 43 119 147 105 77 144 214
130 109 141 122 73 207 46 31
86 106 96 133 196 71 63 142
96 97 96 136 167 151 50 141
166 57 75 100 73 133 116 213
60 49 140 192 102 138 79 117
185 199 109 102 199 140 78 67
103 175 213 185 154 178 111 220

dense_1/kernel:0_quantized u1 [64, 2]
00000000: 2a74 57db a3de bcee 769d 3751 1439 00a2
00000010: d6c0 70d0 1777 c695 7b51 f303 f479 af81
00000020: 9e2a 3925 cf11 8cb7 7ddc 568b 08d2 298d
00000030: 3a5d 44b2 62ca b33e dcff 1d00 73a8 ad5b
00000040: c1ad 5c14 39dc 54a9 2a43 8fc3 3a51 a73b
00000050: 3ca8 84ad f4de 7a4b 447d f519 db99 73e3
00000060: 1fb3 794c c83e 956e 2a28 835d cd8b 4992
00000070: 2864 651b 56e6 cb88 47be c62e a897 7bc3
42 116 87 219 163 222 188 238
118 157 55 81 20 57 0 162
214 192 112 208 23 119 198 149
123 81 243 3 244 121 175 129
158 42 57 37 207 17 140 183
125 220 86 139 8 210 41 141
58 93 68 178 98 202 179 62
220 255 29 0 115 168 173 91
193 173 92 20 57 220 84 169
42 67 143 195 58 81 167 59
60 168 132 173 244 222 122 75
68 125 245 25 219 153 115 227
31 179 121 76 200 62 149 110
42 40 131 93 205 139 73 146
40 100 101 27 86 230 203 136
71 190 198 46 168 151 123 195
