model/smoke-detect.onnx (onnx, 108660 bytes, 10 tensors)

StatefulPartitionedCall/sequential_3/dense_5/BiasAdd/ReadVariableOp:0 f4 [2]
00000000: 438e cfb9 e28e cf39
-0.0003958811 0.00039588573

StatefulPartitionedCall/sequential_3/dense_4/BiasAdd/ReadVariableOp:0 f4 [32]
00000000: 64d2 3a3d 38d6 94bc c741 14bd f049 9f3d
00000010: 20a5 9d3d 77a0 7bbd c7ff 75bc 4822 bb3d
00000020: e97d 633d 9135 143d d2be de3d be31 8b3d
00000030: 4238 1cbd 7a44 e83d 198a ae3d 810a 6b3c
00000040: f49a 1dbc 9d2b 5a3d d550 813c f93e 413b
00000050: a580 aebc 825a b83d a0ae 543b f6c2 953d
00000060: 06fb a6bc 7b33 f3bc 114b 64bc 0642 bcbc
00000070: 5739 14bd 33cb dd3d 041d 40bd 6591 cf3d
0.0456108 -0.018168554 -0.036195543 0.07777774 0.07697511 -0.061432328 -0.015014595 0.09137398
0.05554 0.036183897 0.1087624 0.06796597 -0.03813959 0.11341186 0.08522434 0.014345766
-0.009619463 0.05326425 0.015785614 0.0029486998 -0.021301577 0.09001638 0.0032452717 0.073125765
-0.02038337 -0.029687634 -0.013933913 -0.022980701 -0.036187496 0.10829773 -0.04690267 0.10135154

StatefulPartitionedCall/sequential_3/conv2d_9/BiasAdd/ReadVariableOp:0 f4 [32]
00000000: 3f4a 25bd 7ac0 243d 02e9 7fbc 13ac 7e3c
00000010: 0102 99bd 8ec6 ca3d 0355 bb3c cba9 6abd
00000020: ff6e 113d 844b 9cbc a128 d0bd cb5a dcbc
00000030: 19ea 8f3d 15af 35bc b95b 0f3e 3711 d63c
00000040: a982 05be 5234 93bc cfe2 833d 9c89 3bbd
00000050: 14fd 0abe 0742 e53c f035 95bc c0a7 81bd
00000060: e71b 23bd b4ff 1f3d 8f7a 863d 7a7d 47bd
00000070: c71f 09bd 2c80 a9bc 17f2 193c 7779 0cbe
-0.04035401 0.040222622 -0.015619518 0.015543955 -0.07471085 0.099011526 0.022867685 -0.057290833
0.035506245 -0.019078977 -0.10163999 -0.026898762 0.070270725 -0.011089106 0.13999833 0.026131256
-0.13038124 -0.017969284 0.06439745 -0.04578553 -0.13573104 0.027985586 -0.018214196 -0.06330824
-0.03982153 0.039062217 0.06566345 -0.04870365 -0.03347757 -0.020691 0.009396098 -0.1371821

StatefulPartitionedCall/sequential_3/conv2d_11/BiasAdd/ReadVariableOp:0 f4 [64]
00000000: 9367 3abd f967 f5bc 4bec 073e b199 0bbd
00000010: e1b6 86bd d974 89bc e48a 00bd fdb6 e4bc
00000020: 513a 31bd 9cc6 24bd 9d23 2fbd 89e2 02bd
00000030: cf17 94bd b35a 003a a76a a93d 226d 9bba
00000040: 2f1e 5ebd 237a 1fbd 1f11 703d dee1 5abd
00000050: 5c51 863d d237 1f3e cb7a 033d 6e1f 2c3d
00000060: 170d 01bd 5921 68bd ac7e 06bd 09f7 44bd
00000070: 60e6 22bd eb1f 183e be6f fabc a2ab 26bd
00000080: 305e ba3d 2935 e63c e053 51bd e89c a73c
00000090: 857b 00bd 094e c8bd 36a7 dd3d 206f 903d
000000a0: fb4e 7fbd 137e e0bc 9de6 89bd 2999 c43d
000000b0: 10fe 05bd 8bea e6bc 4666 993d c7e1 76bd
000000c0: 68e5 923d 33e5 30bc fdc3 f13c fb6f 8ebd
000000d0: 3989 2abd 9a21 cdbd 26c5 66bd 0fb5 0cbd
000000e0: e020 ffbd 39b2 113e 44fa 28bd ac0e 20bd
000000f0: ee82 bd3c 24dc 3cbd 86cd c2bc 0648 83bd
-0.045508932 -0.029956805 0.13273732 -0.03408212 -0.0657785 -0.01677935 -0.031382456 -0.027919287
-0.043268505 -0.04022847 -0.042758573 -0.031954322 -0.07231104 0.0004896328 0.082722954 -0.0011858086
-0.054228004 -0.038934838 0.058610078 -0.05343806 0.06558487 0.15548638 0.032099526 0.04202216
-0.031506624 -0.056672428 -0.032835647 -0.048087154 -0.039770484 0.14855926 -0.030570861 -0.040691026
0.09099996 0.02810152 -0.05110538 0.02046056 -0.031367797 -0.09780509 0.108229086 0.070524454
-0.06233118 -0.027403867 -0.06733439 0.095995255 -0.032712996 -0.02818801 0.0749021 -0.06027391
0.07172662 -0.010796833 0.0295124 -0.06954952 -0.041634772 -0.100161746 -0.05634036 -0.03435236
-0.12457442 0.14228143 -0.041254297 -0.039076492 0.023133721 -0.04610838 -0.023779642 -0.06410222

StatefulPartitionedCall/sequential_3/conv2d_10/BiasAdd/ReadVariableOp:0 f4 [64]
00000000: 73f4 32bd 0009 e4bd ae0b cabc cac2 52bd
00000010: 497d 20bd e6e6 04bd 645c 63ba 67e8 79bd
00000020: 98a9 cdbc a296 debc d7b3 2ebd b4b1 91bc
00000030: 826f 13bd 5654 20bd cb5f 643b 601d 94bd
00000040: 9633 0bbd 0aa8 04be 3663 01bd 3c16 57bd
00000050: a306 4fbd 4e30 c9bc c58c ffbc 4d73 25bd
00000060: deba 813d ffe6 a3bc 70d6 29bd 144b b53d
00000070: eb46 c5bc 7034 10bd 6e85 09bd 9831 bebc
00000080: 9d19 d7bc 15bc 27bd 299c 003c 98a0 3dbd
00000090: 7dfc ccbd 3f42 4a3d e68c ba3d b400 83bc
000000a0: 9c0c d3bc fe96 5cbd 6dd0 23bd 972f 55bd
000000b0: 593d 4fbd e6a2 78bc c9e8 dfbb 12d6 873d
000000c0: 3d0b 03bd 66f2 7a3d a4d3 9bbc ce98 89bd
000000d0: 8d1b 25bd e393 8cbc dc58 21bd c631 a4bd
000000e0: b58e 3cbd 4c39 71bd f30e 03bd 672c d0bc
000000f0: 3f77 56bd 7d12 c53c 11a7 55bd c0ed 63bd
-0.043690156 -0.11134529 -0.024663772 -0.051455297 -0.03918198 -0.032446764 -0.000867313 -0.06101265
-0.025105283 -0.027171437 -0.042651977 -0.01778493 -0.035995014 -0.03914293 0.0034847136 -0.07232165
-0.033984743 -0.12954727 -0.031588756 -0.05251144 -0.05054344 -0.024559166 -0.031195054 -0.040393163
0.0633447 -0.020007608 -0.04146427 0.08852211 -0.024081668 -0.03520626 -0.033574514 -0.023217008
-0.02625733 -0.040950853 0.0078497315 -0.046295732 -0.10009096 0.049379583 0.091089055 -0.015991546
-0.025762849 -0.053854935 -0.039993692 -0.05204734 -0.050595615 -0.015175557 -0.00683317 0.066326275
-0.03199314 0.061266325 -0.019021817 -0.06718598 -0.040309478 -0.017160362 -0.039391384 -0.08017306
-0.046034534 -0.058892533 -0.03199668 -0.025411798 -0.052359816 0.024056667 -0.05216128 -0.055646658

StatefulPartitionedCall/sequential_3/conv2d_9/Conv2D/ReadVariableOp:0_quantized u1 [32, 1, 3, 3]
00000000: 62c3 9b60 996a 8253 964c 348a 747d 5179
00000010: d1b1 a879 752f 3e80 e2d7 c39b c856 ec8a
00000020: 65e9 502a 9d5c 9187 6f9d aa90 9957 5952
00000030: 6c53 9f8c 2c66 834a 5d67 8898 ceb7 dd94
00000040: 8099 9474 8f84 a394 9a30 e34f 7b83 8560
00000050: 5a7b 58c5 a536 c7b8 4bc3 6b5d 6497 77b1
00000060: 7cc3 ae99 6d43 6a7c a762 b379 a04a 73fa
00000070: c0dd 3f0f 6fb6 c254 bcdd 7626 59c7 765c
00000080: 9f67 6078 7c5f a0ee a35e ff70 3cb8 5152
00000090: 4b91 947f 88b6 b7c1 7952 7355 a8aa bd8e
000000a0: 876f 4c41 3a76 c1d3 c2a7 9094 945b 5e54
000000b0: 7492 4db6 5887 827d 9ba2 c3cc 714b 5452
000000c0: caa5 7aa3 9fc2 5b56 42be b86c bfc5 b54e
000000d0: 6ca2 9faa b65b 886c 8e76 688a e25d dcc6
000000e0: 6a92 e8af 7ece d847 0066 dc8d 4cc7 5f5b
000000f0: d54b 70aa b580 6556 787c a97d b52b 959e
98 195 155 96 153 106 130 83
150 76 52 138 116 125 81 121
209 177 168 121 117 47 62 128
226 215 195 155 200 86 236 138
101 233 80 42 157 92 145 135
111 157 170 144 153 87 89 82
108 83 159 140 44 102 131 74
93 103 136 152 206 183 221 148
128 153 148 116 143 132 163 148
154 48 227 79 123 131 133 96
90 123 88 197 165 54 199 184
75 195 107 93 100 151 119 177
124 195 174 153 109 67 106 124
167 98 179 121 160 74 115 250
192 221 63 15 111 182 194 84
188 221 118 38 89 199 118 92
159 103 96 120 124 95 160 238
163 94 255 112 60 184 81 82
75 145 148 127 136 182 183 193
121 82 115 85 168 170 189 142
135 111 76 65 58 118 193 211
194 167 144 148 148 91 94 84
116 146 77 182 88 135 130 125
155 162 195 204 113 75 84 82
202 165 122 163 159 194 91 86
66 190 184 108 191 197 181 78
108 162 159 170 182 91 136 108
142 118 104 138 226 93 220 198
106 146 232 175 126 206 216 71
0 102 220 141 76 199 95 91
213 75 112 170 181 128 101 86
120 124 169 125 181 43 149 158

StatefulPartitionedCall/sequential_3/conv2d_10/Conv2D/ReadVariableOp:0_quantized u1 [64, 32, 3, 3]
00000000: 728b 757b 7870 7393 9183 7e75 7f74 808d
00000010: 8773 6f6c 8072 656b 8977 7e74 846d 9073
00000020: 7f7c 6373 7c7b 7f7d 6c84 8f6b 8f76 8b80
00000030: 8b7d 9089 6e82 6a87 7067 8070 8479 647a
00000040: 8373 7788 7980 7f77 8a89 7f8a 9178 7782
00000050: 7291 707c 7373 8772 8c72 6f79 8496 7772
00000060: 6c8b 6690 888c 7878 897f 7a83 8976 807b
00000070: 746e 7583 7376 8f6b 8184 7572 7980 758b
00000080: 8068 816c 6780 6e86 8682 8065 666d 7c6f
00000090: 7d75 7d81 8f72 7d89 8e90 7083 7a79 8d92
000000a0: 8882 7d8c 636f 7060 797f 6e8c 7f87 838b
000000b0: 8273 768f 7f6e 8a68 8b73 897c 7b71 7382
000000c0: 7460 6c85 767d 7e81 8886 856e 7377 867c
000000d0: 696f 7496 8092 887b 7785 748d 7a6c 876d
000000e0: 876b 8b7a 8282 7b83 6d76 7487 6d7d 6a80
000000f0: 8e91 678e 8f84 8284 837a 8c7a 6f8b 6c83
114 139 117 123 120 112 115 147
145 131 126 117 127 116 128 141
135 115 111 108 128 114 101 107
137 119 126 116 132 109 144 115
127 124 99 115 124 123 127 125
108 132 143 107 143 118 139 128
139 125 144 137 110 130 106 135
112 103 128 112 132 121 100 122
131 115 119 136 121 128 127 119
138 137 127 138 145 120 119 130
114 145 112 124 115 115 135 114
140 114 111 121 132 150 119 114
108 139 102 144 136 140 120 120
137 127 122 131 137 118 128 123
116 110 117 131 115 118 143 107
129 132 117 114 121 128 117 139
128 104 129 108 103 128 110 134
134 130 128 101 102 109 124 111
125 117 125 129 143 114 125 137
142 144 112 131 122 121 141 146
136 130 125 140 99 111 112 96
121 127 110 140 127 135 131 139
130 115 118 143 127 110 138 104
139 115 137 124 123 113 115 130
116 96 108 133 118 125 126 129
136 134 133 110 115 119 134 124
105 111 116 150 128 146 136 123
119 133 116 141 122 108 135 109
135 107 139 122 130 130 123 131
109 118 116 135 109 125 106 128
142 145 103 142 143 132 130 132
131 122 140 122 111 139 108 131

StatefulPartitionedCall/sequential_3/conv2d_11/Conv2D/ReadVariableOp:0_quantized u1 [64, 64, 3, 3]
00000000: 9585 8f84 9590 838b 7576 7069 7b81 8871
00000010: 6479 69a0 8676 808a 9696 9379 9387 7879
00000020: 957b 8692 8f8c 9a7f 7899 8985 8774 9f70
00000030: 7e7e 719c 7790 8a95 777f 8372 7573 9286
00000040: 966d 887a 7d7f 6989 867f 8698 957d 9481
00000050: 8191 9284 948c 8b98 8999 8594 8990 8393
00000060: 8d7c 7f9a 7c8c 8387 879b 967c 7982 808f
00000070: 9481 8696 7793 8892 958a 878f 7d87 87a4
00000080: 93a0 b0a9 b1a8 8b8e a17c 98a3 858e 8e98
00000090: 9278 798a 877b 8e73 9877 9763 9866 6392
000000a0: 6877 797a 7b7a 8d7f 997f 957b 9687 7c9a
000000b0: 7b92 8692 7081 6c7c 6470 6a76 779b 9677
000000c0: 9b7e 7c94 958b 9183 8190 9881 897d 837e
000000d0: 797c 948b 7e80 9589 8d84 729b 8379 7a75
000000e0: 808d 837f 8f82 626d 818a 738a 9389 7c79
000000f0: 7d85 7379 7583 727d 8082 7784 858b 957f
149 133 143 132 149 144 131 139
117 118 112 105 123 129 136 113
100 121 105 160 134 118 128 138
150 150 147 121 147 135 120 121
149 123 134 146 143 140 154 127
120 153 137 133 135 116 159 112
126 126 113 156 119 144 138 149
119 127 131 114 117 115 146 134
150 109 136 122 125 127 105 137
134 127 134 152 149 125 148 129
129 145 146 132 148 140 139 152
137 153 133 148 137 144 131 147
141 124 127 154 124 140 131 135
135 155 150 124 121 130 128 143
148 129 134 150 119 147 136 146
149 138 135 143 125 135 135 164
147 160 176 169 177 168 139 142
161 124 152 163 133 142 142 152
146 120 121 138 135 123 142 115
152 119 151 99 152 102 99 146
104 119 121 122 123 122 141 127
153 127 149 123 150 135 124 154
123 146 134 146 112 129 108 124
100 112 106 118 119 155 150 119
155 126 124 148 149 139 145 131
129 144 152 129 137 125 131 126
121 124 148 139 126 128 149 137
141 132 114 155 131 121 122 117
128 141 131 127 143 130 98 109
129 138 115 138 147 137 124 121
125 133 115 121 117 131 114 125
128 130 119 132 133 139 149 127

StatefulPartitionedCall/sequential_3/dense_4/MatMul/ReadVariableOp:0_quantized u1 [1024, 32]
00000000: 6498 819b 837a 9582 a094 8e68 8986 928d
00000010: 8775 7f6f 929c 9893 8878 8197 8e93 828d
00000020: 7775 8870 7582 8881 8781 836f 888f 747e
00000030: 797b 7d80 7b7c 7b8f 707a 9283 977c 9482
00000040: b374 8c76 8786 9362 8b99 6fb7 7897 66bd
00000050: 989c 9889 6d7e 7059 908c 7476 8d80 6f90
00000060: 7b86 9786 7c7b 808d 9d93 747a 6f86 9686
00000070: 7d7d 6e6f 7e7b 9586 7b87 7886 7b96 8e8d
00000080: 7e74 9190 a48e 6e98 8461 a552 857a 9f73
00000090: 7d5e 6680 6ea6 7fb0 808a 7988 77ba 8a53
000000a0: 7788 8d9e 966a 8d9a 746c a070 8772 aa5d
000000b0: 8661 5b86 8aa8 77ac 8482 7d82 769e 775d
000000c0: 8082 7477 7883 9773 8e83 9186 7d7c 7b8e
000000d0: 9375 8a95 8587 728b 9780 948b 9385 7e86
000000e0: 8394 90a1 9890 987d 9688 9c63 7e80 9c83
000000f0: 9172 7479 92a2 7d9a 9692 8672 7e9f 6f89
100 152 129 155 131 122 149 130
160 148 142 104 137 134 146 141
135 117 127 111 146 156 152 147
136 120 129 151 142 147 130 141
119 117 136 112 117 130 136 129
135 129 131 111 136 143 116 126
121 123 125 128 123 124 123 143
112 122 146 131 151 124 148 130
179 116 140 118 135 134 147 98
139 153 111 183 120 151 102 189
152 156 152 137 109 126 112 89
144 140 116 118 141 128 111 144
123 134 151 134 124 123 128 141
157 147 116 122 111 134 150 134
125 125 110 111 126 123 149 134
123 135 120 134 123 150 142 141
126 116 145 144 164 142 110 152
132 97 165 82 133 122 159 115
125 94 102 128 110 166 127 176
128 138 121 136 119 186 138 83
119 136 141 158 150 106 141 154
116 108 160 112 135 114 170 93
134 97 91 134 138 168 119 172
132 130 125 130 118 158 119 93
128 130 116 119 120 131 151 115
142 131 145 134 125 124 123 142
147 117 138 149 133 135 114 139
151 128 148 139 147 133 126 134
131 148 144 161 152 144 152 125
150 136 156 99 126 128 156 131
145 114 116 121 146 162 125 154
150 146 134 114 126 159 111 137

StatefulPartitionedCall/sequential_3/dense_5/MatMul/ReadVariableOp:0_quantized u1 [32, 2]
00000000: 9902 6c79 216b 3ebe 3c9f 8725 ddd5 51b6
00000010: b0ff eb36 4dae 7423 b09e d27f 27aa 8e16
00000020: db16 bf14 ed53 7626 58a9 4ac0 be8a 4873
00000030: 6792 c288 9488 1eac 4cd1 3ae4 e140 ac00
153 2 108 121 33 107 62 190
60 159 135 37 221 213 81 182
176 255 235 54 77 174 116 35
176 158 210 127 39 170 142 22
219 22 191 20 237 83 118 38
88 169 74 192 190 138 72 115
103 146 194 136 148 136 30 172
76 209 58 228 225 64 172 0
