model/smoke-detect.onnx (onnx, 92262 bytes, 10 tensors)

StatefulPartitionedCall/sequential_6/dense_8/BiasAdd/ReadVariableOp:0 f4 [2]
000000 e6 ec c7 bd 58 ed c7 3d
       -0.09761982 0.097620666

StatefulPartitionedCall/sequential_6/dense_7/BiasAdd/ReadVariableOp:0 f4 [16]
000000 75 3c 56 3f f6 b3 7a bd 22 5a b3 3d 61 dc 47 3d
       0.83686 -0.06120678 0.08757426 0.048794154
000010 6a c2 db bd ed c6 bf 3d e7 e2 15 3f 5b f8 94 3f
       -0.10730441 0.09364114 0.5854935 1.1638292
000020 91 e6 00 bf b3 ed 2c be 1e da 8d be 93 a1 c4 be
       -0.50351816 -0.1688755 -0.27705473 -0.3840452
000030 5a 82 eb bd 82 ce 73 3f de e1 2e 3f c0 04 7f bc
       -0.11499472 0.9523698 0.68313396 -0.015565097

StatefulPartitionedCall/sequential_6/conv2d_26/BiasAdd/ReadVariableOp:0 f4 [64]
000000 c3 72 bf bd 66 76 34 bd c3 aa 5c 3f aa 49 3d bd
       -0.09348061 -0.044058226 0.8619806 -0.04621283
000010 43 11 a5 3e f1 34 2e bd 20 12 05 3f 0e ee 18 3e
       0.32239732 -0.042530958 0.5198078 0.1493456
000020 17 e0 e0 3e e1 99 12 bd 18 ac 01 3e dc d8 96 bd
       0.43920967 -0.03579128 0.12663305 -0.073655814
000030 cf ea c1 bd 21 d5 4b bd 28 81 fc bc d9 d3 0c 3f
       -0.09468614 -0.049763802 -0.030823305 0.55010754
000040 63 20 9e bc a3 27 1d bd 0f 0f 21 bc 00 31 ac bd
       -0.019302553 -0.03836788 -0.00983025 -0.084077835
000050 2f 1f 69 bd 47 bf 76 bd d5 30 4a bd eb fd d8 bd
       -0.056914505 -0.06024101 -0.049362976 -0.10595306
000060 74 96 3a be c1 4b e6 bd 23 65 2e bd fb a5 67 bd
       -0.18221456 -0.11244918 -0.04257692 -0.056554776
000070 a6 9c 36 3e d9 4b 7a bd 8d 06 01 bd 75 0d d2 be
       0.17833194 -0.06110749 -0.031500388 -0.41025892
000080 76 47 1f 3f a2 78 cd be 9c e8 b5 3e 80 44 c9 3e
       0.62218416 -0.40131098 0.3552903 0.39310074
000090 56 48 cc be 52 5e 7e bd 91 bc bc bd 4c 1e 40 bd
       -0.39898938 -0.06210167 -0.09215654 -0.046903893
0000a0 53 86 10 bd eb 98 ef bc ad bb e9 bd e0 4a 0e bf
       -0.03528435 -0.029247722 -0.114127494 -0.55583
0000b0 8d 47 86 bd 75 2c 32 bd a0 26 dd 3e db 31 6e bd
       -0.06556616 -0.04349943 0.4319353 -0.058153015
0000c0 42 aa 21 3d 73 71 18 3f 92 b1 89 bd 5a 3d 3c bd
       0.03946901 0.5954811 -0.06723322 -0.045956947
0000d0 77 2c 05 3e 11 85 cb bd 02 68 a9 bd 74 22 a5 bd
       0.13005243 -0.0993749 -0.08271791 -0.08063212
0000e0 f4 9e e6 3e e8 e1 56 3d 1b 82 af 3b 13 40 31 bf
       0.45043147 0.052461535 0.005356086 -0.69238394
0000f0 3c c4 87 3e 20 b3 55 bd b8 aa 33 be 37 d2 49 bd
       0.26516902 -0.05217278 -0.17545593 -0.049272742

StatefulPartitionedCall/sequential_6/conv2d_25/BiasAdd/ReadVariableOp:0 f4 [64]
000000 68 a4 42 3e 0f 3a 38 bd 42 51 3d be 35 64 8d bd
       0.19008029 -0.044977244 -0.18488029 -0.069038786
000010 ec bc 76 3d 6c 33 27 bd a9 b3 15 be 0e ee 13 be
       0.060238764 -0.040820524 -0.14619316 -0.1444628
000020 9a 0e 9d 3d 45 6c 69 bf fc 6a 35 bd 83 68 45 be
       0.07668801 -0.9118083 -0.04429148 -0.1927815
000030 d9 a9 99 bd 88 27 83 be 2e 1e a1 bd 08 ba 66 be
       -0.07503099 -0.25616097 -0.078670844 -0.22531903
000040 55 7e 45 bf 35 4e 50 3f cd a3 12 bd 0d 0f 14 3f
       -0.7714589 0.81369334 -0.035800744 0.57835466
000050 38 f3 21 bc eb 17 39 bf 2f 19 19 be 72 09 1d be
       -0.009884648 -0.7230212 -0.14951013 -0.15335634
000060 99 a4 87 be 9b 6c 0b be 17 16 9d bd 44 4f 65 bd
       -0.26492766 -0.13615648 -0.07670229 -0.055983797
000070 3a e4 d8 bd c7 d3 45 3e e9 e3 7a bf c8 b5 84 bd
       -0.10590406 0.19319068 -0.98004013 -0.064799845
000080 08 b6 02 be a2 95 35 bd 14 e4 43 3e d6 f6 28 be
       -0.12764752 -0.044332154 0.19129974 -0.1650041
000090 8f 3c bb 3d 0a bc 83 bd 49 a1 2a bd de 29 6e bd
       0.0914241 -0.0643235 -0.04165772 -0.058145396
0000a0 29 90 3d 3e 83 61 fd 3d ff 2f 6f bd 28 b2 11 3a
       0.18512024 0.123721145 -0.058395382 0.00055578584
0000b0 1f 6a bb be 9e 21 a2 bd 85 08 b4 be 2f 8c ae bd
       -0.366044 -0.07916568 -0.3516275 -0.08522832
0000c0 eb 44 86 bd 61 7d 87 bd 61 d9 5a bd a6 76 06 bf
       -0.06556114 -0.06615711 -0.053429965 -0.52524793
0000d0 a9 5d e4 be d0 e0 d8 3c cb d5 93 3e 05 83 4d 3b
       -0.44602707 0.026474386 0.2887405 0.0031358611
0000e0 5c ff 1b 3e 53 5e 1f bd f5 50 25 3e 45 d2 a3 3e
       0.1523413 -0.038908314 0.16144164 0.3199636
0000f0 39 c3 14 bf 57 9d 2a 3e 5b 9b 3a 3d 1a 1e c0 bc
       -0.58110386 0.16661583 0.045558315 -0.023451854

StatefulPartitionedCall/sequential_6/conv2d_24/BiasAdd/ReadVariableOp:0 f4 [32]
000000 f2 52 33 3c f8 aa 05 3c c3 28 7d 3b 89 f2 e9 3e
       0.010945069 0.008158438 0.0038629032 0.45692852
000010 68 4f be 3b 34 70 96 bd c2 5c 71 bd 79 fe 74 bd
       0.005807806 -0.0734562 -0.05892635 -0.059812997
000020 f4 ba 9a 3c 66 5c 7b bc 34 13 4d be 1e 94 77 bc
       0.018887974 -0.015341854 -0.20026857 -0.0151109975
000030 ea 76 5c 3c fa 05 38 be 75 23 d3 3c 96 b6 34 be
       0.013456086 -0.1797103 0.025773743 -0.17647776
000040 d9 eb e6 3e ab e1 df bc 1b a7 d3 3e 81 c8 cb bc
       0.45101812 -0.027329287 0.4133843 -0.024875881
000050 8c 4f fa 3c 13 47 f5 bc 3a 19 3d bf 66 bb cd bb
       0.030555509 -0.029941117 -0.7386662 -0.006278443
000060 61 41 02 3e 58 e1 6c 3e cb c5 df bb 90 28 a6 be
       0.12720253 0.23132837 -0.0068289987 -0.32452822
000070 70 56 0c be 2c 6b 12 bd db 9e ac bd c3 41 12 be
       -0.13704848 -0.03574674 -0.08428737 -0.14282899

StatefulPartitionedCall/sequential_6/conv2d_24/Conv2D/ReadVariableOp:0_quantized u1 [32, 1, 3, 3]
000000 c8 cd d4 58 88 b7 55 56 58 c9 4b aa b4 0f da 80
       200 205 212 88 136 183 85 86 88 201 75 170 180 15 218 128
000010 66 dd 63 68 60 b5 65 51 fc ff 97 70 25 3d 68 35
       102 221 99 104 96 181 101 81 252 255 151 112 37 61 104 53
000020 5e 9d 90 b3 4b fa 48 58 dc 6d a6 79 a7 84 86 7d
       94 157 144 179 75 250 72 88 220 109 166 121 167 132 134 125
000030 99 82 81 87 9f 84 28 44 88 37 5b d2 89 db de 8e
       153 130 129 135 159 132 40 68 136 55 91 210 137 219 222 142
000040 87 8a 89 93 96 7f 83 83 8c b7 85 db a9 3e df a6
       135 138 137 147 150 127 131 131 140 183 133 219 169 62 223 166
000050 14 76 c9 8b 50 c1 d5 0d 83 f7 d5 cf 49 e0 a1 19
       20 118 201 139 80 193 213 13 131 247 213 207 73 224 161 25
000060 c2 76 40 6d 58 66 e1 ff f0 72 58 64 4e 90 a9 f4
       194 118 64 109 88 102 225 255 240 114 88 100 78 144 169 244
000070 ea 74 7e 4e 6f 97 86 9c 97 95 91 8e 9e 8a c2 ba
       234 116 126 78 111 151 134 156 151 149 145 142 158 138 194 186
000080 96 df a8 93 67 3b 59 9a 8d 92 9f 8f 74 87 95 9d
       150 223 168 147 103 59 89 154 141 146 159 143 116 135 149 157
000090 12 3c cf 00 32 5a 47 70 9f 88 7e 8f 94 90 84 92
       18 60 207 0 50 90 71 112 159 136 126 143 148 144 132 146
0000a0 8d 8e ad 8a ab 80 76 75 51 5a 71 7d 8c 89 87 91
       141 142 173 138 171 128 118 117 81 90 113 125 140 137 135 145
0000b0 84 91 95 92 74 c3 db 6c 25 d9 df 4b 7f bb 9b 8a
       132 145 149 146 116 195 219 108 37 217 223 75 127 187 155 138
0000c0 43 3e 84 a1 d7 d0 86 6d 84 80 99 bc c1 e6 df 4a
       67 62 132 161 215 208 134 109 132 128 153 188 193 230 223 74
0000d0 5e ad 44 86 e0 89 d2 cc 8d a5 cd 6f 72 c8 3e 13
       94 173 68 134 224 137 210 204 141 165 205 111 114 200 62 19
0000e0 4d 93 77 9a 6e 38 35 d6 af 82 da 55 76 f6 56 6a
       77 147 119 154 110 56 53 214 175 130 218 85 118 246 86 106
0000f0 bd 85 86 cc e5 e8 98 66 93 68 5f 6e 83 9b 7b 80
       189 133 134 204 229 232 152 102 147 104 95 110 131 155 123 128

StatefulPartitionedCall/sequential_6/conv2d_25/Conv2D/ReadVariableOp:0_quantized u1 [64, 32, 3, 3]
000000 56 95 83 79 76 aa a3 6f 84 a0 89 7f 85 b0 9e a4
       86 149 131 121 118 170 163 111 132 160 137 127 133 176 158 164
000010 87 a4 84 79 bd 85 7a 7f 70 4d 68 a1 57 9d b9 34
       135 164 132 121 189 133 122 127 112 77 104 161 87 157 185 52
000020 97 c4 6b 62 92 76 5c b0 ba 91 c3 af b8 90 99 91
       151 196 107 98 146 118 92 176 186 145 195 175 184 144 153 145
000030 93 97 98 98 97 96 97 a5 7d bf c4 86 a1 87 7a 90
       147 151 152 152 151 150 151 165 125 191 196 134 161 135 122 144
000040 94 8e 98 8e 98 92 8f 90 94 a4 a5 84 92 8d a0 91
       148 142 152 142 152 146 143 144 148 164 165 132 146 141 160 145
000050 9b ab a4 8f be 97 ae d2 99 9e b3 99 c5 a5 61 98
       155 171 164 143 190 151 174 210 153 158 179 153 197 165 97 152
000060 7e 66 96 6d 84 a7 46 4a 7a 65 60 75 68 8b 88 79
       126 102 150 109 132 167 70 74 122 101 96 117 104 139 136 121
000070 57 a4 98 6e 9b 97 9a 94 92 95 93 93 94 93 85 9d
       87 164 152 110 155 151 154 148 146 149 147 147 148 147 133 157
000080 97 7a 79 89 99 84 9b 94 92 94 92 94 8b 91 96 95
       151 122 121 137 153 132 155 148 146 148 146 148 139 145 150 149
000090 9b 66 6d ca 68 a8 c3 6a 3d 8f 94 90 98 8f 90 96
       155 102 109 202 104 168 195 106 61 143 148 144 152 143 144 150
0000a0 99 8d a8 8d 95 cc 89 92 ca 9b 79 91 8e 90 98 92
       153 141 168 141 149 204 137 146 202 155 121 145 142 144 152 146
0000b0 8f 8e 8d 90 9c b7 79 99 97 96 c4 89 92 8f 81 82
       143 142 141 144 156 183 121 153 151 150 196 137 146 143 129 130
0000c0 8e 6e 72 a2 5e 6d 99 a2 bf 79 74 9f 82 60 6f a9
       142 110 114 162 94 109 153 162 191 121 116 159 130 96 111 169
0000d0 9e 7f 8b 73 99 ab 74 a3 9a 89 62 aa 7f 77 ae 9f
       158 127 139 115 153 171 116 163 154 137 98 170 127 119 174 159
0000e0 50 95 95 b7 bf 83 8d bf 7e 8e a4 86 bc 9b b1 86
       80 149 149 183 191 131 141 191 126 142 164 134 188 155 177 134
0000f0 b8 8e 87 7a a4 84 61 7c 83 75 70 94 9c 96 95 97
       184 142 135 122 164 132 97 124 131 117 112 148 156 150 149 151

StatefulPartitionedCall/sequential_6/conv2d_26/Conv2D/ReadVariableOp:0_quantized u1 [64, 64, 3, 3]
000000 90 8f 8e 8b 90 8f 8a 90 88 8f 8f 8f 91 8e 8b 8a
       144 143 142 139 144 143 138 144 136 143 143 143 145 142 139 138
000010 8c 8a 8c 90 85 88 88 84 87 8b 8d 89 88 8a 8f 90
       140 138 140 144 133 136 136 132 135 139 141 137 136 138 143 144
000020 92 91 92 93 8e 86 89 90 90 90 8b 90 8d 8e 88 91
       146 145 146 147 142 134 137 144 144 144 139 144 141 142 136 145
000030 8c 8a 8d 88 92 8f 8d 86 89 86 87 8f 8e 8b 8d 8b
       140 138 141 136 146 143 141 134 137 134 135 143 142 139 141 139
000040 91 93 8b 89 8c 93 8d 92 8d 88 87 8a 86 90 8a 90
       145 147 139 137 140 147 141 146 141 136 135 138 134 144 138 144
000050 88 89 8a 89 8a 8d 88 8b 8b 90 88 8f 8e 8a 8b 92
       136 137 138 137 138 141 136 139 139 144 136 143 142 138 139 146
000060 8b 93 92 8e 8a 8a 8c 8e 8d 90 8e 8b 8f 8c 92 8d
       139 147 146 142 138 138 140 142 141 144 142 139 143 140 146 141
000070 88 89 8a 88 89 8d 89 8a 8c 8e 87 85 86 88 8e 90
       136 137 138 136 137 141 137 138 140 142 135 133 134 136 142 144
000080 8b 90 92 8e 90 91 92 88 8e 8e 89 87 8e 88 8a 8b
       139 144 146 142 144 145 146 136 142 142 137 135 142 136 138 139
000090 89 88 86 8e 88 87 8a 88 87 89 8e 8b 90 8a 92 91
       137 136 134 142 136 135 138 136 135 137 142 139 144 138 146 145
0000a0 91 89 8d 8f 90 89 8d 8d 91 88 88 92 8a 8a 8b 90
       145 137 141 143 144 137 141 141 145 136 136 146 138 138 139 144
0000b0 8c 8d 8d 8a 90 89 8f 8e 89 8f 8f 8d 88 8f 88 8f
       140 141 141 138 144 137 143 142 137 143 143 141 136 143 136 143
0000c0 8e 8d 8a 87 8f 86 8d 89 8c 8b 8e 91 8e 8e 8c 8c
       142 141 138 135 143 134 141 137 140 139 142 145 142 142 140 140
0000d0 90 8d 8e 8d 8c 91 92 90 8c 8b 88 91 8c 8c 91 8e
       144 141 142 141 140 145 146 144 140 139 136 145 140 140 145 142
0000e0 90 88 8a 87 8b 8a 8a 89 8d 86 8b 8b 8e 8e 89 91
       144 136 138 135 139 138 138 137 141 134 139 139 142 142 137 145
0000f0 8b 92 8b 91 8f 8b 8f 8f 8d 8e 88 8d 91 88 90 8d
       139 146 139 145 143 139 143 143 141 142 136 141 145 136 144 141

StatefulPartitionedCall/sequential_6/dense_7/MatMul/ReadVariableOp:0_quantized u1 [1024, 16]
000000 8c 8c 89 86 8a 89 91 8f 8c 8c 8a 89 8c 91 87 91
       140 140 137 134 138 137 145 143 140 140 138 137 140 145 135 145
000010 91 88 90 89 8b 91 92 92 8f 84 8f 8e 8d 8c 8b 87
       145 136 144 137 139 145 146 146 143 132 143 142 141 140 139 135
000020 93 bc 7b a0 3f 7d 8d 7a 8b 7c a5 82 bf 6a 49 92
       147 188 123 160 63 125 141 122 139 124 165 130 191 106 73 146
000030 8b 8a 8f 8d 90 89 8b 8f 8d 90 8c 88 8a 88 86 8f
       139 138 143 141 144 137 139 143 141 144 140 136 138 136 134 143
000040 9c 75 8d 8a 7b a4 8c 84 8d 7f 5e 77 6b 9e 9a a4
       156 117 141 138 123 164 140 132 141 127 94 119 107 158 154 164
000050 8d 86 89 8a 88 8d 87 8d 87 8f 90 85 87 8d 86 88
       141 134 137 138 136 141 135 141 135 143 144 133 135 141 134 136
000060 7f b1 ae 80 82 77 95 a2 9d 8f ae 5e 7b 8a 87 6e
       127 177 174 128 130 119 149 162 157 143 174 94 123 138 135 110
000070 48 90 8c 72 85 58 a8 9f 9f 95 82 8d a2 4b 88 a2
       72 144 140 114 133 88 168 159 159 149 130 141 162 75 136 162
000080 7f 6f 6d 85 ad 80 7a 65 97 92 95 6b 67 c8 94 58
       127 111 109 133 173 128 122 101 151 146 149 107 103 200 148 88
000090 88 91 8e 89 8a 89 8b 8f 86 8d 89 90 8b 84 8a 88
       136 145 142 137 138 137 139 143 134 141 137 144 139 132 138 136
0000a0 b2 7c 95 7b a5 9f ac ad 81 a7 7c 74 8d ba 88 7b
       178 124 149 123 165 159 172 173 129 167 124 116 141 186 136 123
0000b0 8d 86 88 8f 8b 8b 8c 8d 89 8c 8b 89 8b 86 8d 85
       141 134 136 143 139 139 140 141 137 140 139 137 139 134 141 133
0000c0 90 84 8b 8d 8d 8a 94 94 8e 86 87 87 83 8c 8f 90
       144 132 139 141 141 138 148 148 142 134 135 135 131 140 143 144
0000d0 8d 88 8c 90 8e 87 8b 8f 86 91 86 88 8b 87 8d 8e
       141 136 140 144 142 135 139 143 134 145 134 136 139 135 141 142
0000e0 8f 8a 8a 8c 93 8c 94 8a 84 8e 83 8e 84 93 8f 8b
       143 138 138 140 147 140 148 138 132 142 131 142 132 147 143 139
0000f0 b0 59 80 7d 96 ad 99 c3 79 86 77 90 6a 95 a8 72
       176 89 128 125 150 173 153 195 121 134 119 144 106 149 168 114

StatefulPartitionedCall/sequential_6/dense_8/MatMul/ReadVariableOp:0_quantized u1 [16, 2]
000000 6d 93 af 86 a4 6a ff d5 97 d5 ad ee 97 b9 93 b7
       109 147 175 134 164 106 255 213 151 213 173 238 151 185 147 183
000010 da a9 2d 6c 34 11 eb c1 cd b3 61 8d 3c 61 00 20
       218 169 45 108 52 17 235 193 205 179 97 141 60 97 0 32
